data/titanic/net_parameter.pkl (torch, 4895 bytes, 5 tensors)

linear1.weight f4 [20, 15]
0.3693675 6.281159 0.9026788 2.995749 -2.7436273 -0.40206578 -1.1536019 -0.004984692
-1.7193618 -0.0534261 1.1799917 1.0769098 3.336942 -2.0326734 0.56214267 -0.5404794
-0.1829769 -0.023577021 -0.79484105 0.17521486 -0.09068333 0.10188699 0.17453912 0.044473384
-0.018823067 -0.045592252 -0.25675958 -0.25547382 -0.18374082 -0.024272038 1.9111426 4.7466598
-2.701834 4.549407 -6.8970685 -0.021840706 -2.4564164 0.19549374 1.4268563 -0.2549649
0.4303365 1.643167 -0.18127517 0.507364 6.6195836 4.689621 3.2796094 0.24107961
-0.39104402 1.0382257 -0.5246769 0.64325756 -0.5301123 -0.6557551 -0.6756877 0.6360198
0.21578586 0.49541372 1.1739918 0.024421751 3.7848012 1.0823134 -2.4613304 3.8747249
-5.2466726 -0.21563335 0.34581196 0.49059322 -1.5092953 -0.14083965 -1.6376619 -0.8976246
0.5275421 0.55049586 6.6570663 -0.20835985 2.7367005 0.12132791 -7.380141 3.398304
-0.9693238 -2.2816827 -2.1169093 3.9695494 0.12862736 -1.1287622 -0.4046867 -4.686352
1.900422 -1.051622 0.923408 0.042152878 0.7221672 0.1808614 -0.042136297 -1.0978762
0.44155753 -0.60293823 -1.7874436 -0.39231554 0.07776146 0.31018478 -1.10048 1.5033418
-0.009966373 -0.11974408 -0.17955062 0.13620692 0.09163272 0.107701786 -0.2617036 -0.2402871
0.08646859 0.017990293 -0.0665806 -0.29457328 -0.18728326 -0.20356005 -0.17091745 0.11958614
-3.811214 4.471853 0.10980944 -3.3362014 3.183149 0.123796254 -0.30153605 0.43986326
-2.0318873 -0.15224558 2.2910178 -0.999462 0.93674815 1.4035048 -0.08803854 -0.52603
-0.6427597 0.19639412 -0.16288133 -0.22983752 0.024620468 -0.6843981 -0.85216755 -0.34929526
-0.5270852 -0.7210459 -0.27546757 0.069295846 -0.693467 0.065666184 2.7236557 5.1896977
-4.7114453 5.5395517 -10.772476 -0.022881519 0.04543193 -0.27490398 -1.1192634 0.0043063546
-0.41331816 -0.15660071 0.9817971 -0.18455003 9.3677635 -1.009804 -2.5426993 0.4357595
-0.5101023 -0.5367138 -0.60699725 1.0315624 2.7329032 0.012667783 -0.012223019 0.15517299
-2.9660487 -0.74506867 1.2879248 -0.40129805 0.009149478 -0.20713389 0.40166667 0.17824121
-0.03052258 -0.03531197 -0.43259823 -0.41378 -0.033927973 -0.08401967 0.099784955 0.34655052
0.10334502 0.11828039 -0.02711762 0.033119798 0.07278037 -0.14078145 0.09140086 -0.12092161
-0.1047582 -0.02161853 0.03338808 0.020616263 -0.027821377 -0.1058981 0.24933985 -0.09335925
-0.16990903 0.12402335 2.8521917 -3.802017 1.4022379 -2.139087 1.5232283 -1.383145
0.87985533 -2.1576838 -5.009392 -0.09263905 1.6212724 1.5970412 -0.106020875 0.83374
-0.114390075 -0.0066046906 0.15576394 -0.12875548 -0.085038036 -0.045332164 -0.076378666 -0.020134848
-0.1508162 0.07422587 -0.03129058 -0.22428675 0.16572213 -0.124366425 -0.26653698 -0.15753818
2.1850364 1.4954394 0.28854498 1.4573108 -0.6494409 -2.8745265 1.2458495 -0.7571718
2.5251644 -0.4898205 0.3590799 -1.4637007 0.314914 2.1109653 0.113185495 -1.3251714
00000000: bd1d bd3e 41ff c840 f515 673f 5aba 3f40
00000010: 9797 2fc0 91db cdbe 3aa9 93bf a156 a3bb
00000020: 0c14 dcbf 54d5 5abd f809 973f 2ed8 893f
00000030: 7590 5540 5217 02c0 95e8 0f3f dc5c 0abf
00000040: 4c5e 3bbe 9924 c1bc b47a 4bbf 866b 333e
00000050: 2fb8 b9bd 20aa d03d 62ba 323e b929 363d
00000060: d532 9abc f1be 3abd fe75 83be 77cd 82be
00000070: 8e26 3cbe 27d6 c6bc 52a0 f43f a3e4 9740
00000080: d9ea 2cc0 be94 9140 c9b4 dcc0 48eb b2bc
00000090: ed35 1dc0 832f 483e 3aa3 b63f c28a 82be
000000a0: 1155 dc3e 4c53 d23f 33a0 39be 9be2 013f
000000b0: a1d3 d340 6011 9640 1fe5 5140 93dd 763e
000000c0: ec36 c8be 94e4 843f 3a51 06bf 87ac 243f
000000d0: 71b5 07bf 91df 27bf def9 2cbf 32d2 223f
000000e0: f8f6 5c3e dea6 fd3e 5d45 963f 2010 c83c
000000f0: 2f3a 7240 3f89 8a3f 7086 1dc0 7efb 7740
00000100: bee4 a7c0 fdce 5cbe 440e b13e 092f fb3e
00000110: 9730 c1bf 4538 10be e89e d1bf baca 65bf
00000120: 000d 073f 4ced 0c3f b006 d540 495c 55be
00000130: 1a26 2f40 c47a f83d 1d2a ecc0 d07d 5940
00000140: 9b25 78bf 1707 12c0 717b 07c0 190d 7e40
00000150: e4b6 033e 487b 90bf 1833 cfbe 98f6 95c0
00000160: 0741 f33f 8d9b 86bf 7764 6c3f 7fa8 2c3d
00000170: f3df 383f bb33 393e 1c97 2cbd 3587 8cbf
00000180: d413 e23e 295a 1abf f4ca e4bf 95dd c8be
00000190: 6641 9f3d 8ad0 9e3e 87dc 8cbf 816d c03f
000001a0: 004a 23bc 623c f5bd 1edc 37be d479 0b3e
000001b0: efa9 bb3d c192 dc3d 04fe 85be d20d 76be
000001c0: 7216 b13d 6160 933c 695b 88bd 4fd2 96be
000001d0: 2fc7 3fbe 0c72 50be fc04 2fbe 94e9 f43d
000001e0: eeea 73c0 6b19 8f40 c6e3 e03d 5384 55c0
000001f0: b7b8 4b40 e488 fd3d ef62 9abe c235 e13e
00000200: 710a 02c0 44e6 1bbe 09a0 1240 bedc 7fbf
00000210: bace 6f3f 0ca6 b33f 8d4d b4bd e7a9 06bf
00000220: e68b 24bf 8a1b 493e 5dca 26be 875a 6bbe
00000230: ddb0 c93c b734 2fbf a727 5abf d4d6 b2be
00000240: 0eef 06bf 7796 38bf 160a 8dbe fbea 8d3d
00000250: 0e87 31bf fe7b 863d 6050 2e40 0112 a640
00000260: 29c4 96c0 0244 b140 105c 2cc1 0672 bbbc
00000270: d516 3a3d 37c0 8cbe 0644 8fbf 521c 8d3b
00000280: 709e d3be f05b 20be 0e57 7b3f affa 3cbe
00000290: 5ce2 1541 4241 81bf 96bb 22c0 df1b df3e
000002a0: 1096 02bf 1366 09bf 2c64 1bbf 3d0a 843f
000002b0: e3e7 2e40 888c 4f3c 0f43 48bc abe5 1e3e
000002c0: bed3 3dc0 d2bc 3ebf b8da a43f f076 cdbe
000002d0: b1e7 153c e81a 54be 41a7 cd3e dd84 363e
000002e0: 7d0a fabc 49a3 10bd 847d ddbe f9da d3be
000002f0: 0ff8 0abd 8112 acbd 0e5c cc3d 126f b13e
00000300: 8ea6 d33d fd3c f23d c525 debc a0a8 073d
00000310: e00d 953d 0329 10be 6030 bb3d c0a5 f7bd
00000320: 788b d6bd 5819 b1bc f0c1 083d 70e3 a83c
00000330: a8e9 e3bc 1ae1 d8bd f252 7f3e 2233 bfbd
00000340: a2fc 2dbe f4ff fd3d 4f8a 3640 3f54 73c0
00000350: 887c b33f cde6 08c0 25f9 c23f e50a b1bf
00000360: 333e 613f 7e17 0ac0 f04c a0c0 8bb9 bdbd
00000370: db85 cf3f d96b cc3f 7921 d9bd fc6f 553f
00000380: 5845 eabd 296c d8bb 9580 1f3e 7ad8 03be
00000390: 6c28 aebd 38ae 39bd 6b6c 9cbd d6f1 a4bc
000003a0: 906f 1abe bc03 983d 8d2a 00bd 6dab 65be
000003b0: 10b3 293e d3b3 febd 8977 88be b051 21be
000003c0: a3d7 0b40 8f6a bf3f 2bbc 933e 2989 ba3f
000003d0: c241 26bf 3ef8 37c0 ff77 9f3f 03d6 41bf
000003e0: 4b9c 2140 c1c9 fabe 52d9 b73e 8b5a bbbf
000003f0: 683c a13e 0e1a 0740 cccd e73d 379f a9bf

linear1.bias f4 [20]
1.1549354 -0.23672718 0.9184616 0.79797274 0.29867306 0.8791649 0.029586155 -0.17421634
0.5438636 -0.16258281 -0.0007471846 -0.9865046 -0.12096707 0.07568708 0.72502464 0.059197508
0.402112 -0.2593014 0.055511165 -0.10405341
00000000: ecd4 933f 9c68 72be 4d20 6b3f f147 4c3f
00000010: adeb 983e f310 613f aa5e f23c c565 32be
00000020: a53a 0b3f 1c7c 26be b6de 43ba 918b 7cbf
00000030: 95bd f7bd d401 9b3d 379b 393f 1679 723d
00000040: a0e1 cd3e 27c3 84be ad5f 633d f419 d5bd

linear2.weight f4 [15, 20]
0.06821726 0.089174755 -0.20833126 1.465786 -0.91024137 0.008825056 -0.29342347 0.23103072
0.10401745 -0.27749658 -0.28155977 0.37671703 0.15884419 -0.024349779 -0.19928835 0.010027144
1.2719827 -0.38722664 0.0020216291 -0.27782667 -1.191288 -0.06719202 -0.75050014 2.641671
-0.010611762 -1.4485495 0.13767114 -0.06457849 0.36066908 -0.012193341 -0.98975986 0.61549467
0.13599472 -0.0011589229 1.656337 0.13511413 1.6882628 -0.043135 -0.14343151 0.42633644
0.040509522 -0.11613094 -0.08220118 -0.17139839 -0.09458712 -0.31782162 -0.6321569 0.024627604
-0.20858766 -0.053132534 -0.08903921 0.07937451 0.13851972 -0.11341537 -0.38970014 0.114376456
-0.4295255 -0.20092519 -0.037228122 -0.45753875 0.6236139 -0.10756868 0.2396028 0.17855956
0.31608894 -0.9179836 -0.33290136 -0.18169284 -0.7300637 -0.2991179 1.1337577 0.24745673
0.027263992 0.21289769 -0.5440249 -0.06654631 -1.1364015 -0.12981099 0.10240346 -0.16530846
-0.22453846 -0.10824044 -0.059133835 0.097978294 -0.876252 -0.44797248 -0.016868763 0.17609547
-0.13927476 -0.12853336 -0.3250909 0.022632005 0.014021984 -0.022562042 0.099163905 -0.2513357
-0.35496366 -0.13190167 0.20548576 -0.64422995 -0.16475843 -0.26206982 -0.15683709 -0.47083855
-0.1108941 -0.19097354 0.030738782 -0.06012155 -0.3382464 -0.26355988 -0.050550904 -0.08851671
-0.24334213 -0.076934725 0.056452964 0.07568815 -0.11232776 -0.13415572 0.00703457 -0.033256903
0.24589074 -0.27067 -0.21707326 0.12846868 -0.3541447 -0.4047507 -0.42136782 0.121461526
-0.10827081 0.021708038 -0.31269634 -1.0139209 0.04818803 -0.15682635 -0.3413215 -0.20764269
-1.1316403 -0.26111674 -0.20927754 -0.53964037 -0.19314018 0.10943791 -0.26307985 -0.19101074
-0.15662238 -0.08683385 -0.20446017 -0.16357887 0.013002036 0.10190325 -0.17209765 -0.19062462
-0.15048149 0.06728396 -0.2575845 -0.24892883 -0.14519389 0.07131124 -0.16739045 -0.26233
-0.26052922 -0.27689022 -0.041104242 -0.15467334 -0.16277309 -0.10528139 0.07933529 -0.05280997
0.042499363 -0.02099673 -0.88268554 -0.06169262 0.07581688 0.13088694 -0.04492826 -0.07153617
-0.04329479 -0.24575794 -0.15936643 -0.34150907 0.7824604 0.047702752 0.2509551 -0.48312265
0.15047558 -0.02559435 1.2451278 -0.09304961 0.17595857 0.092874035 0.04722035 0.06543391
0.123235755 0.07575026 0.7021106 -0.038556963 -0.2701669 -0.14767852 -0.07323162 -2.2316525
-0.020730048 -0.04237126 -0.07930854 -0.39718682 -0.8780152 -0.08672782 0.42029476 0.116163045
-0.40376407 -0.22070232 -0.14531615 -0.06939068 0.18946879 -0.038403526 -0.47106224 -0.21244118
-0.026274428 -0.10666773 0.0024580508 -0.51050216 -0.20892574 -0.22327636 -0.405956 0.04552707
-0.49630398 -0.21705838 -0.16243169 -0.13276032 -0.28666684 -0.06785519 -0.08813962 -0.12067554
-0.15039575 0.16858849 0.04763613 -0.11267201 -0.081025496 -0.16960758 -0.09878274 -0.22602263
0.010688489 0.17879471 -0.04438723 0.04897535 -0.09239011 -0.21069042 -0.15261048 -0.021649288
-0.254391 0.0358496 -0.424077 -0.16779722 -0.08460565 -0.18240935 0.0973897 -0.13680816
00000000: 7eb5 8b3d 41a1 b63d ca54 55be e09e bb3f
00000010: 9405 69bf f896 103c 9a3b 96be 5193 6c3e
00000020: 1a07 d53d 0814 8ebe 9a28 90be 0ee1 c03e
00000030: 0da8 223e 3079 c7bc 3f12 4cbe e448 243c
00000040: 54d0 a23f 9242 c6be 4f7d 043b 4c3f 8ebe
00000050: 207c 98bf f89b 89bd c720 40bf 2311 2940
00000060: f5dc 2dbc 126a b9bf aaf9 0c3e ba41 84bd
00000070: 9ea9 b83e 94c6 47bc e760 7dbf 0f91 1d3f
00000080: 3342 0b3e 00e7 97ba da02 d43f 5c5b 0a3e
00000090: ff18 d83f 53ae 30bd b6df 12be c548 da3e
000000a0: 50ed 253d 0fd6 edbd 1859 a8bd 0f83 2fbe
000000b0: e4b6 c1bd 84b9 a2be 09d5 21bf d4bf c93c
000000c0: 0198 55be 80a1 59bd 305a b6bd 1a8f a23d
000000d0: 1dd8 0d3e 5146 e8bd c786 c7be 343e ea3d
000000e0: c4ea dbbe 55bf 4dbe 847c 18bd 8542 eabe
000000f0: 29a5 1f3f f84c dcbd 705a 753e 51d8 363e
00000100: 69d6 a13e f900 6bbf 0c72 aabe b00d 3abe
00000110: 74e5 3abf fb25 99be f91e 913f 4c65 7d3e
00000120: bc58 df3c da01 5a3e 3745 0bbf 6f49 88bd
00000130: 9b75 91bf 2ced 04be e8b8 d13d 9f46 29be
00000140: 69ed 65be 2aad ddbd 5236 72bd d8a8 c83d
00000150: 0d52 60bf a65c e5be 5c30 8abc 5f52 343e
00000160: 0b9e 0ebe 409e 03be 5072 a6be c166 b93c
00000170: 77bc 653c 08d4 b8bc 7216 cb3d 13af 80be
00000180: ccbd b5be 3b11 07be dc6a 523e 41ec 24bf
00000190: 6fb6 28be 042e 86be e799 20be c011 f1be
000001a0: 721c e3bd 918e 43be e6cf fb3c 0442 76bd
000001b0: a22e adbe 52f1 86be 770e 4fbd 4048 b5bd
000001c0: ae2e 79be f48f 9dbd 393b 673d 6402 9b3d
000001d0: 190c e6bd 1e60 09be 4082 e63b 6438 08bd
000001e0: c8ca 7b3e 4295 8abe 7448 5ebe 4b8d 033e
000001f0: 7452 b5be 7c3b cfbe 86bd d7be d2c0 f83d
00000200: 16bd ddbd 0ed5 b13c bc19 a0be 29c8 81bf
00000210: d060 453d 1697 20be b1c1 aebe 49a0 54be
00000220: 97d9 90bf 18b1 85be da4c 56be df25 0abf
00000230: 8ac6 45be fc20 e03d 67b2 86be 5298 43be
00000240: 9e61 20be f2d5 b1bd 025e 51be 3881 27be
00000250: 7e06 553c a7b2 d03d 5e3a 30be 1a33 43be
00000260: d217 1abe 2ccc 893d 1ee2 83be 33e7 7ebe
00000270: b5ad 14be a10b 923d 6768 2bbe 1e50 86be
00000280: 1664 85be 8ec4 8dbe ec5c 28bd b062 1ebe
00000290: fdad 26be c59d d7bd 8a7a a23d 444f 58bd
000002a0: d013 2e3d 5601 acbc aef7 61bf 67b1 7cbd
000002b0: e145 9b3d 3a07 063e b206 38bd 8e81 92bd
000002c0: e155 31bd f8a7 7bbe f430 23be 47da aebe
000002d0: 534f 483f f663 433d 307d 803e da5b f7be
000002e0: 4516 1a3e 3eab d1bc 5960 9f3f cb90 bebd
000002f0: 7c2e 343e be34 be3d 206a 413d 3702 863d
00000300: 0763 fc3d f422 9b3d 85bd 333f e8ed 1dbd
00000310: 5153 8abe 0a39 17be 76fa 95bd 65d3 0ec0
00000320: 10d2 a9bc 7c8d 2dbd 846c a2bd 125c cbbe
00000330: 9bc5 60bf 5b9e b1bd e030 d73e e4e6 ed3d
00000340: 2aba cebe caff 61be c2cd 14be b31c 8ebd
00000350: 1b04 423e 044d 1dbd 122f f1be 2e8a 59be
00000360: 783d d7bc 9c74 dabd 4017 213b 45b0 02bf
00000370: a1f0 55be 8fa2 64be 77d9 cfbe 987a 3a3d
00000380: 8e1b febe 8d44 5ebe 7e54 26be 52f2 07be
00000390: ffc5 92be a9f7 8abd 8c82 b4bd bd24 f7bd
000003a0: 5801 1abe 76a2 2c3e 1a1e 433d 95c0 e6bd
000003b0: b2f0 a5bd 9cad 2dbe 9b4e cabd 7a72 67be
000003c0: c61e 2f3c f615 373e 62cf 35bd 609a 483d
000003d0: 0737 bdbd 3bbf 57be ec45 1cbe d959 b1bc
000003e0: 8a3f 82be 08d7 123d 9f20 d9be 09d3 2bbe
000003f0: ba45 adbd 84c9 3abe 4074 c73d 7017 0cbe

linear2.bias f4 [15]
-0.7685365 -0.21250068 -0.8012825 0.057466224 -0.62583625 -0.2851211 -0.81366634 -0.5287752
-0.5163767 -0.65637374 -1.2882457 -0.6136641 -0.36885443 0.30875373 -0.77916545
00000000: cfbe 44bf c799 59be da20 4dbf b461 6b3d
00000010: ce36 20bf 65fb 91be 704c 50bf d05d 07bf
00000020: 4331 04bf 1c08 28bf 3ce5 a4bf 1719 1dbf
00000030: 7dda bcbe f814 9e3e 6377 47bf

linear3.weight f4 [1, 15]
0.028378347 -0.26573646 0.03878777 0.23013648 -0.13890694 0.022671146 -0.05055439 0.28553694
-0.09253297 0.3011902 -0.05308728 -0.10247284 -0.19609775 -0.76230705 0.0764767
00000000: b579 e83c 9c0e 88be eddf 1e3d e6a8 6b3e
00000010: 9f3d 0ebe d7b8 b93c 1f12 4fbd e631 923e
00000020: ed81 bdbd 9a35 9a3e 0c72 59bd 48dd d1bd
00000030: d9cd 48be 8e26 43bf d19f 9c3d
