data/cifar2/model_parameter.pkl (torch, 220207 bytes, 7 tensors)

conv1.weight f4 [32, 3, 3, 3]
0	0xbd9471e8	-0.072482884
1	0xbe203139	-0.15643777
2	0x3d16c220	0.036806226
3	0xbd3e8ddf	-0.046522018
4	0xbe578059	-0.21045054
5	0x3cabbefb	0.02096509
6	0x3d505502	0.05086232
7	0xbe0273bb	-0.1273946
8	0x3d013a36	0.031549655
9	0x3c1e38ca	0.009657094
10	0x3d8650af	0.06558358
11	0xbcc0f6d0	-0.02355519
12	0xbe303fb8	-0.17211807
13	0x3ca4972e	0.02009162
14	0x3d0a7059	0.03379855
15	0x3e6032c6	0.21894369
16	0x3e232785	0.15933044
17	0xbcb6c8dd	-0.022312576
18	0xbdf806b4	-0.121106535
19	0xbe32e574	-0.17470342
20	0xbb606508	-0.0034239907
21	0x3e35a716	0.1773952
22	0xbe479e3f	-0.1949396
23	0x3dc5aad0	0.096517205
24	0x3e1f2be2	0.15544084
25	0x3e0012fa	0.12507239
26	0x3dbe747f	0.092995636
27	0x3e63854f	0.22218822
28	0x3e6768d3	0.22598581
29	0x3d84e4b0	0.06488931
30	0xba4ee5f4	-0.0007892542
31	0xbbea736b	-0.007154872
32	0x3dac84e0	0.084237814
33	0xbd42cee3	-0.047560584
34	0xbda5d119	-0.08096523
35	0x3d1b032e	0.03784483
36	0x3e4f51b8	0.20246017
37	0x3e6ded96	0.23235163
38	0xbe11b8ce	-0.14230654
39	0x3de5bbf4	0.1121749
40	0xbe37f554	-0.17964679
41	0xbdb14147	-0.08655029
42	0xbe7bda75	-0.24595053
43	0x3cf65e2d	0.030074203
44	0xbcfcf070	-0.030876368
45	0xbd1dc826	-0.038520955
46	0x3e1cace1	0.15300323
47	0xbd8473c1	-0.06467391
48	0xbdd2665d	-0.102734305
49	0x3e266e74	0.16253072
50	0xbd4bfb28	-0.04980007
51	0xbdba5dc3	-0.09099915
52	0xbc74f748	-0.014951535
53	0xbe138ea9	-0.1440989
54	0x3e44ae36	0.19207081
55	0xbe4177a8	-0.18893301
56	0x3b7ab06f	0.0038252135
57	0x3e5af5b1	0.21382786
58	0x3d4f6e76	0.050642453
59	0x3d4d171b	0.050070863
60	0x3e6bcd65	0.2302757
61	0x3db2da2c	0.08733019
62	0xbddc0d46	-0.10744719
63	0xbd46084b	-0.048347753
64	0xbe789414	-0.24275237
65	0x3d0f566b	0.034994524
66	0xbd9f95c8	-0.077922404
67	0x3c143c09	0.009047517
68	0xbd33ed63	-0.04392756
69	0x3e4bad7a	0.19890395
70	0xbd995542	-0.07486965
71	0xbdc9b9c7	-0.09849887
72	0xbe4b82a8	-0.1987406
73	0xbe5133dc	-0.20429939
74	0xbd36829a	-0.044558145
75	0x3df016d1	0.11723102
76	0xbd92ef93	-0.071746014
77	0x3d1e1499	0.038593862
78	0xbe06c618	-0.13161504
79	0x3e21e8eb	0.15811507
80	0x3d59b5c9	0.05315188
81	0xbdb21db8	-0.08697075
82	0x3dcbd539	0.09952778
83	0x3b8785a8	0.004135806
84	0xbe5fb943	-0.21848015
85	0x3e227192	0.15863636
86	0xbd990218	-0.074711025
87	0xbd383a0f	-0.044977244
88	0xbdd7562d	-0.105144836
89	0xbcec53ee	-0.028848615
90	0xbe2efbb2	-0.17088202
91	0x3dd6201f	0.10455345
92	0xbe1041bc	-0.14087576
93	0xbe323634	-0.1740349
94	0xbd01a78e	-0.031653933
95	0xbd5b6b1d	-0.053568948
96	0x3d11eb66	0.035624884
97	0xbe2102e6	-0.15723762
98	0x3de1aba5	0.11019067
99	0xbdaf32fb	-0.08554646
100	0x3c9b5f49	0.018966334
101	0xbda7e429	-0.08197815
102	0x3cd37a73	0.025815224
103	0x3e3f28b1	0.18667866
104	0x3e1aca05	0.15116127
105	0x3de31eae	0.11089836
106	0xbbdc57ef	-0.0067243497
107	0xbdd10784	-0.102065116
108	0xbe30be17	-0.17260014
109	0xbdbdc354	-0.092657715
110	0xbe408067	-0.18798982
111	0xbd92c372	-0.071661845
112	0xbe534444	-0.2063151
113	0xbe70d8b9	-0.23520173
114	0x3b2919e0	0.0025802776
115	0xbdea7e39	-0.11449856
116	0xbd797c1e	-0.060909383
117	0x3dd3be7c	0.103390664
118	0xbde64537	-0.112436704
119	0xbd83122b	-0.0639995
120	0xbe205cfd	-0.15660472
121	0xbb765764	-0.003758871
122	0xbe56d628	-0.20980132
123	0x3d67e882	0.05661822
124	0x3cb86253	0.022507822
125	0x3de9873f	0.11402749
126	0x3e5a5e2e	0.21324989
127	0xbe353c6d	-0.17698832
128	0x3d8a6d66	0.06759147
129	0x3d0d1464	0.034443274
130	0xbcdde036	-0.027084451
131	0xbe78cda3	-0.24297194
132	0xbd8b31c1	-0.06796599
133	0x3c7fddae	0.015616817
134	0xbda32ca0	-0.07967496
135	0xbd833d87	-0.0640822
136	0x3e2d9811	0.1695254
137	0x3deb5048	0.11489922
138	0x3e4ed425	0.20198114
139	0x3db50bce	0.08840142
140	0xbd86aa87	-0.06575494
141	0x3decfd39	0.11571736
142	0x3dd77360	0.10520053
143	0xbd296c24	-0.041362897
144	0x3d9552da	0.07291193
145	0x3e5e5750	0.21712995
146	0x3e0df23c	0.13861936
147	0x3e496e63	0.19671015
148	0x3e358e82	0.17730144
149	0x3df8901f	0.12136864
150	0xbd792436	-0.06082555
151	0x3d04d31b	0.03242789
152	0x3e65fc97	0.22459637
153	0x3d163959	0.036675785
154	0xbe4939c2	-0.19650939
155	0x3baefc29	0.0053401184
156	0x3e0c5151	0.13702895
157	0x3e31ea64	0.17374569
158	0x3babf7b4	0.0052480344
159	0x3ca101c4	0.019654162
160	0xbe18146d	-0.14851542
161	0xbdb2172a	-0.086958244
162	0x3d85eeb0	0.06539667
163	0x3e1fdb98	0.15611112
164	0x3cb0aa55	0.021565596
165	0xbd8888e0	-0.06666732
166	0x3e215b25	0.15757425
167	0xbdeff2c0	-0.11716223
168	0xbe185944	-0.14877802
169	0x3d799183	0.060929786
170	0x3d09cd94	0.03364332
171	0x3e3e8250	0.18604398
172	0x3e0e6849	0.13906969
173	0xbd875bde	-0.06609319
174	0xbe1eb933	-0.15500335
175	0xbe139c4b	-0.1441509
176	0x3d717d23	0.05895723
177	0xbdb6e49b	-0.08930322
178	0xbe245126	-0.1604658
179	0x3e1b1017	0.15142857
180	0x3e32732f	0.17426752
181	0xbe2bd646	-0.16780958
182	0xbc720b4e	-0.014773203
183	0x3c097806	0.008390432
184	0xbdba5ca5	-0.09099702
185	0xbd999446	-0.07498984
186	0x3dfac172	0.12243928
187	0xbdaff140	-0.08590937
188	0xbe069c5a	-0.13145581
189	0xbe4aeebb	-0.19817631
190	0x3e2be523	0.16786627
191	0x3da6f5f2	0.08152379
192	0xbe2554e3	-0.16145663
193	0x3de45659	0.11149282
194	0x3d490d96	0.049085222
195	0xbe0073b3	-0.12544136
196	0x3e376434	0.17909318
197	0x3c081739	0.008306318
198	0xbe27155d	-0.16316743
199	0x3e0f30a1	0.13983394
200	0xbe1443b1	-0.14478947
201	0xbd389be9	-0.045070563
202	0x3dc4333d	0.095800854
203	0xbcdf6ba0	-0.027273
204	0x3e03e85f	0.12881611
205	0x3e529487	0.20564471
206	0x3e4d0e13	0.200249
207	0xbdae7b86	-0.08519654
208	0x3cade4b9	0.021227228
209	0x3bafbf08	0.005363349
210	0xbd964bc2	-0.073386684
211	0x3e49c171	0.19702698
212	0x3e09f5b1	0.1347263
213	0x3d95c11b	0.073122226
214	0x3dbf96e2	0.093549505
215	0xbdd9d135	-0.10635606
216	0x3e1b759f	0.15181588
217	0xbe338ed0	-0.17534947
218	0x3e42cdd2	0.19023827
219	0x3c841479	0.016123043
220	0x3e3052a4	0.17219025
221	0x3d61411e	0.05499374
222	0x3e1b7c0b	0.15184037
223	0x3dfa3b92	0.122183934
224	0x3e32e2d3	0.17469339
225	0x3dc487f9	0.09596247
226	0xbe3c377b	-0.18380539
227	0xbbfa2444	-0.0076337177
228	0xbe1f30c0	-0.1554594
229	0x3e5d24ae	0.21596023
230	0xbe0f35da	-0.13985386
231	0x3e018c56	0.1265119
232	0xbdc5d701	-0.09660149
233	0xbe2a5cb9	-0.16636933
234	0x3e335858	0.17514169
235	0xbc0703da	-0.008240664
236	0xbe3d70c3	-0.18500046
237	0x3d218962	0.03943766
238	0x3e2511b5	0.16120036
239	0xbd87a3fe	-0.06623076
240	0xbdb5b827	-0.08873015
241	0x3e277420	0.16352892
242	0x3e5101a6	0.20410785
243	0x3da50750	0.080580354
244	0xbdf1c62b	-0.11805376
245	0xbd2741d3	-0.04083426
246	0x3e20a728	0.15688765
247	0x3e3e66cf	0.18593906
248	0x3e202a99	0.1564125
249	0x3c0c7ff0	0.008575425
250	0xbdf36c8b	-0.11885937
251	0x3d6fd855	0.05855592
252	0xbe59572c	-0.2122466
253	0xbe587b32	-0.21140745
254	0xbd531b36	-0.051539622
255	0xbe510cee	-0.20415089

conv1.bias f4 [32]
0	0x3cbfcd82	0.023413423
1	0xbe1e878a	-0.15481392
2	0x3c992d36	0.018698316
3	0xbb913913	-0.0044318526
4	0x3e5c2147	0.2149707
5	0x3cc12ec3	0.023581868
6	0xbdab5974	-0.08366671
7	0x3d76431e	0.0601226
8	0xbe6561fd	-0.22400661
9	0x3db89c83	0.09014227
10	0x3d896e13	0.06710448
11	0xbdd224a3	-0.10260894
12	0xbe04d5f8	-0.12972248
13	0x3cb6d752	0.02231947
14	0xbe5c76cd	-0.21529694
15	0xbdeb3982	-0.11485578
16	0x3dbd50c3	0.0924392
17	0xbe7007ca	-0.23440471
18	0xbe271ebb	-0.16320316
19	0x3dac190d	0.084032156
20	0xbc4a384c	-0.012342524
21	0xbe0fe0a7	-0.14050542
22	0xbabab736	-0.0014245275
23	0x3e1bcb0f	0.1521418
24	0x3dada34c	0.08478412
25	0x3d091987	0.03347161
26	0x3e37c791	0.17947222
27	0xbd052dab	-0.032514255
28	0x3c2d20e4	0.010566924
29	0x3db913b3	0.090369605
30	0x3e150a50	0.14554715
31	0x3e2ecb0e	0.17069647

conv2.weight f4 [64, 32, 5, 5]
0	0x3c748fb0	0.014926836
1	0xbce2db5a	-0.027692486
2	0x3d133766	0.035941504
3	0x3a929dbe	0.0011185927
4	0x3cf2567e	0.029582258
5	0xbc173702	-0.0092294235
6	0xbc480b28	-0.012209691
7	0xbbdb90e4	-0.006700622
8	0x3c16469f	0.009172111
9	0x3995d4c8	0.0002857803
10	0x3c13ddbd	0.0090250345
11	0x3bd6c251	0.006553926
12	0xbc76e12f	-0.015068336
13	0x3cadded9	0.021224426
14	0x3d0bfd62	0.03417719
15	0xbc006974	-0.007837642
16	0xbd01fb6a	-0.031733908
17	0xbd0419f5	-0.032251317
18	0x3cf3a2bb	0.029740682
19	0x3ce49724	0.0279041
20	0x3cad7ebe	0.0211786
21	0xbd0a0cab	-0.033703487
22	0x3c400e7a	0.0117222015
23	0xbccbcf98	-0.024879262
24	0xbcbde8ac	-0.023182236
25	0xbcceb63d	-0.025233382
26	0xbd049a40	-0.032373667
27	0x3d02a71b	0.031897645
28	0x3cc4bb11	0.024014981
29	0xba4aded3	-0.0007738892
30	0x3c22774f	0.009916141
31	0xbcef9b23	-0.02924878
32	0x3cc20a24	0.023686476
33	0x3c917939	0.017757999
34	0xbcb2a747	-0.02180828
35	0xbd14a8fd	-0.036293972
36	0xbb3431d9	-0.0027495532
37	0x3cef6678	0.029223666
38	0x3cf05a82	0.029340032
39	0xbbe030f8	-0.006841775
40	0x3cef176e	0.029185977
41	0x3ce6a0a5	0.028152773
42	0x3c7acc8b	0.015307556
43	0x3d06d40b	0.032917064
44	0xbb7671c3	-0.0037604428
45	0x3ca9fc88	0.0207503
46	0xbcb9fea2	-0.022704426
47	0xbd040f9d	-0.032241452
48	0x3ba1d5d2	0.0049388194
49	0xbc524bc3	-0.012835446
50	0x3d087536	0.033314906
51	0x3c8bbd2c	0.017057978
52	0x3c1458d5	0.009054382
53	0x3ce2957d	0.027659172
54	0x3ca9fe42	0.020751122
55	0xbc66305a	-0.014049614
56	0xbc8932a5	-0.016747782
57	0x3bcb463f	0.0062034423
58	0xbd0e4eb3	-0.034743022
59	0x3cf45cab	0.029829344
60	0xbbd53dec	-0.006507626
61	0x3cb4f856	0.022091072
62	0x3cf5fba0	0.03002721
63	0xbcf143f0	-0.02945134
64	0x3c7bd64c	0.015370917
65	0xbb1baabb	-0.0023752886
66	0x38fdc5cc	0.00012100823
67	0xbc586399	-0.01320734
68	0x3c016d8f	0.007899656
69	0x3d049b5e	0.032374732
70	0xbbfe6f34	-0.0077647213
71	0x3caa4cc0	0.02078855
72	0xbcb40aee	-0.021977868
73	0xbbc2d945	-0.0059463107
74	0xbd136a7a	-0.035990216
75	0xbc9a7e29	-0.018858986
76	0xbc833334	-0.016015626
77	0x3ce78189	0.02826001
78	0xbc9a5da2	-0.018843476
79	0xbc52d30c	-0.0128677
80	0xbc6a69b4	-0.014307428
81	0xbd010f42	-0.03150869
82	0xbc90b8a5	-0.01766617
83	0xbc9b7177	-0.018975003
84	0x3cf81abc	0.030286185
85	0x3beea66e	0.0072830236
86	0x3b902995	0.004399488
87	0x3ca65c45	0.02030767
88	0x3c293840	0.010328352
89	0xbcfa76fb	-0.030574312
90	0xbc8ec0cc	-0.017425917
91	0xbc36298c	-0.011118304
92	0x3cc1ea72	0.023671363
93	0xbc463bc9	-0.012099215
94	0x3d02a0d0	0.031891644
95	0xbcbdfc80	-0.02319169
96	0xbb978f68	-0.0046252497
97	0x3ca44108	0.02005054
98	0x3cbd8463	0.023134416
99	0xbd0accf0	-0.03388685
100	0xbbadac81	-0.005300105
101	0x3c491ce6	0.012274956
102	0xbcb6b7e5	-0.022304485
103	0x3cda3106	0.026634704
104	0x3c5b18fd	0.013372657
105	0xbcd861a1	-0.02641374
106	0xbc978df5	-0.018500308
107	0xbba36f89	-0.0049876613
108	0xbcfe2590	-0.03102377
109	0x3c9560af	0.018234579
110	0xba8e2ca0	-0.001084704
111	0xbc138231	-0.009003208
112	0xbbc9d804	-0.0061597843
113	0xbb7a1468	-0.0038159136
114	0x3b065cf3	0.002050218
115	0xbbd9a60c	-0.006642109
116	0xbcf6cebe	-0.03012788
117	0xbcf8ea4c	-0.030385159
118	0xbc8da4cc	-0.017290495
119	0x3c0f2031	0.008735702
120	0xbd07deee	-0.033171587
121	0xbc86951f	-0.016428528
122	0x3c785967	0.015158034
123	0xbd0549c5	-0.032541055
124	0xbcf9f542	-0.030512456
125	0xbc1b7fbd	-0.009490904
126	0xbcc584ad	-0.024111116
127	0x3d0e3049	0.034714017
128	0x3cefaaba	0.029256213
129	0x3cb9b4f3	0.022669291
130	0x3bf83eec	0.0075758602
131	0xbca4049d	-0.020021731
132	0x3c58dafa	0.013235802
133	0xbc98e3bc	-0.01866328
134	0x3c4358d2	0.011923032
135	0x3cdf2ed6	0.027244013
136	0xbce1cb76	-0.027562838
137	0x3c79d2e6	0.015248036
138	0x3ca401d0	0.020020396
139	0xbc6e0978	-0.014528625
140	0x3cfaaee7	0.030600978
141	0x3ce32e31	0.027731987
142	0x3b5368c6	0.0032258495
143	0x3bdb8e4d	0.006700313
144	0xbce40179	-0.027832733
145	0x3cffb858	0.031215832
146	0xbcb4b62d	-0.022059524
147	0x3c9285bf	0.01788604
148	0xbcdb6fbb	-0.026786676
149	0xba2db996	-0.0006627081
150	0x3cccd953	0.025005972
151	0x3cf9fefc	0.030517094
152	0x3c627e13	0.013824004
153	0xb96c3b49	-0.000225288
154	0xbd0056b7	-0.031332698
155	0x3b563843	0.0032687343
156	0xbc1053c9	-0.008809038
157	0x3c9cf41b	0.019159367
158	0xbc885515	-0.016642133
159	0x3cf59272	0.029977057
160	0xbd14713b	-0.036240797
161	0xbce3431c	-0.027741961
162	0xbc980fa3	-0.018562144
163	0x3c546a59	0.012964808
164	0xbc3c11ea	-0.01147888
165	0xbcc5e7c1	-0.02415836
166	0x3cd04180	0.025421858
167	0x3c2e1312	0.010624664
168	0x3cc2a900	0.023762226
169	0x3c844e91	0.016150745
170	0xbc781635	-0.015142013
171	0xbd0a8341	-0.03381658
172	0xbc8e3ccf	-0.01736298
173	0x3c348344	0.011017624
174	0xbc8fe623	-0.017565792
175	0x3cfb9683	0.030711418
176	0x3b2a9eb7	0.0026034543
177	0x3bae406f	0.0053177397
178	0x3c20f359	0.009823644
179	0x3ccc7bb2	0.024961326
180	0x3c32752e	0.010892196
181	0x3d10001b	0.03515635
182	0x3ce25489	0.0276282
183	0x3d0ca86f	0.03434032
184	0xbc63bae0	-0.013899535
185	0xbc926aca	-0.017873187
186	0x3d184eb2	0.037184425
187	0xbbb5f352	-0.0055526877
188	0x3cb7c2a9	0.022431688
189	0x3ba463c2	0.005016775
190	0xbc099521	-0.0083973715
191	0x3c66af22	0.014079841
192	0xbc825f2f	-0.015914528
193	0x3ceb7fd4	0.028747477
194	0xbc8ed6b3	-0.017436361
195	0xbcedebee	-0.029043164
196	0xbc0098a7	-0.007848895
197	0xbc9f2bb8	-0.019430026
198	0xbce1de3f	-0.027571796
199	0xbb081a49	-0.002076762
200	0xbce1af3c	-0.027549379
201	0x3c9dc503	0.019258982
202	0x3cafad92	0.02144507
203	0x3cd07c8f	0.02545002
204	0x3c26c3fa	0.01017856
205	0x3c9c84f0	0.019106358
206	0xbc98ca38	-0.018651113
207	0xbb8d92f6	-0.0043204976
208	0xbbe7dc64	-0.007075833
209	0x3c50c03b	0.012741144
210	0xbcd34a87	-0.025792373
211	0x3c238e0c	0.009982597
212	0xbc7707a1	-0.0150775025
213	0xbc6cf680	-0.014463067
214	0xbc53893d	-0.012911138
215	0xbcaaf7d5	-0.020870129
216	0xbbbdcc36	-0.005792166
217	0x3c142a88	0.009043343
218	0x3cb25849	0.021770613
219	0xbcb47a60	-0.02203101
220	0xbcb03f56	-0.021514576
221	0x3c097b7f	0.00839126
222	0xbd02210c	-0.031769797
223	0xbb91abb2	-0.0044455165
224	0xb9fb6c37	-0.00047955077
225	0x3c936941	0.017994525
226	0x3ca77130	0.020439714
227	0xbd19c2ab	-0.037539165
228	0x3c9ccdf8	0.019141182
229	0xbc16f0a0	-0.009212643
230	0xbc4657e1	-0.012105913
231	0x3c6a05d7	0.014283619
232	0xbd17c199	-0.037049863
233	0x3b575146	0.003285484
234	0x3cd8b67c	0.026454203
235	0xbcafb05a	-0.021446396
236	0xbd11df26	-0.0356132
237	0x3ca6c2fb	0.020356646
238	0x3c99db1e	0.018781241
239	0x3cada6d3	0.021197712
240	0x3c99e22a	0.018784601
241	0xbbae752b	-0.005324026
242	0x3cd3a0d5	0.025833527
243	0xbd1ba374	-0.037997678
244	0x3bed514f	0.0072423588
245	0xbd0470b5	-0.03233405
246	0xbd1881d6	-0.037233196
247	0x3b89a5f1	0.00420069
248	0xbd0fdf1d	-0.035124887
249	0xbcabd2bc	-0.02097451
250	0xbc37fc1c	-0.011229541
251	0x3c5760b1	0.013145612
252	0xbb62e6cf	-0.0034622436
253	0xbcf1f0f3	-0.029533839
254	0x3cfc3f30	0.030791849
255	0xbd1acc84	-0.037792698

conv2.bias f4 [64]
0	0x3cf8fb99	0.030393409
1	0xbcfe4d4b	-0.031042716
2	0x3c3ddae5	0.011587833
3	0x3ce1f89e	0.02758437
4	0x3d1b4197	0.03790435
5	0x3cf87497	0.030329032
6	0x3cd016e1	0.025401535
7	0xbc822b63	-0.015889829
8	0x3c0c9499	0.00858035
9	0x3cb13dd1	0.021635922
10	0x3cac00c8	0.020996466
11	0x3c8e266a	0.017352302
12	0x3d10c973	0.035348367
13	0xbb1c1f46	-0.0023822351
14	0x3c67578b	0.014119993
15	0x3c467cdf	0.0121147325
16	0x3d161c94	0.036648348
17	0x392705ec	0.00015928567
18	0xbb6ac3db	-0.0035822305
19	0x3c4c5b76	0.012472978
20	0xbcac2c9d	-0.021017367
21	0x3bc8a18f	0.006122775
22	0xbd214f2b	-0.03938214
23	0x3cb554a1	0.02213508
24	0xbbd65cc3	-0.00654182
25	0xbce39e50	-0.02778545
26	0x3d05bce3	0.03265084
27	0xbcf4c834	-0.02988062
28	0x3cb8b65f	0.022547899
29	0x3c9bd2c3	0.019021397
30	0xbbaa0829	-0.005188961
31	0x3c07913f	0.008274375
32	0xba102bd7	-0.00054996967
33	0x3c1232a9	0.008923211
34	0xbd0810e5	-0.033219237
35	0xbbb20c4f	-0.005433596
36	0x3b687b2f	0.0035473814
37	0xbd0208d0	-0.031746686
38	0xbc75b3d6	-0.0149964895
39	0x3caa84c3	0.020815259
40	0xbcb00363	-0.02148599
41	0xbc72f2f3	-0.014828431
42	0x3cad7326	0.021173071
43	0x3cea0610	0.028567344
44	0xbc34c200	-0.011032581
45	0x3c8e2799	0.017352866
46	0x3ce6b984	0.028164633
47	0x3b5627d9	0.003267756
48	0x3c9aeb9f	0.018911181
49	0x3b95ce9b	0.0045717484
50	0x3c77cc85	0.015124445
51	0xbc94935a	-0.018136669
52	0xbaeea061	-0.0018205756
53	0x3bd5a8ff	0.00652039
54	0xbc2a1a88	-0.010382302
55	0x3c8fa8bb	0.017536512
56	0xbd124861	-0.035713557
57	0xbc9c58ef	-0.019085376
58	0x3cc42922	0.023945395
59	0x3d66a03e	0.056305163
60	0x3c96b69c	0.018397622
61	0x3a23d4ae	0.0006249648
62	0xbc61f616	-0.013791582
63	0x3bd25866	0.0064192293

linear1.weight f4 [32, 64]
0	0xbde9d7bc	-0.11418101
1	0xbd0a38fe	-0.03374576
2	0xbb710b45	-0.0036780399
3	0x3bf9a4f3	0.0076185404
4	0xbdf0347e	-0.11728762
5	0xbd3f6d1c	-0.046734914
6	0x3c9a18ad	0.018810594
7	0x3da99b47	0.0828157
8	0x3dafc2bd	0.08582065
9	0xbd72eb2c	-0.05930631
10	0x3d1d17a2	0.038352616
11	0xbdaa1434	-0.08304635
12	0x3daf8240	0.08569765
13	0xbda38542	-0.07984401
14	0xbdf5dd04	-0.12005046
15	0x3dc32067	0.09527665
16	0x3dc8c5d8	0.09803361
17	0xbd8bcd61	-0.06826282
18	0x3dc4bbec	0.09606156
19	0xbddb2079	-0.10699553
20	0x3b9ee4b3	0.0048490404
21	0xbc91aa93	-0.017781531
22	0xbd2f2281	-0.042757515
23	0xbd6aeb46	-0.05735328
24	0xbb481864	-0.0030532116
25	0xbc48ea2e	-0.012262864
26	0x3d872bec	0.06600174
27	0xbd8d6f44	-0.06905988
28	0xbdce5d27	-0.10076361
29	0x3daa0506	0.083017394
30	0x3c921398	0.017831609
31	0xbddab393	-0.10678782
32	0xbd221dc4	-0.039579168
33	0x3be46ec4	0.006971212
34	0x3c5e4328	0.013565816
35	0xbd236dcf	-0.039899644
36	0x3d863eb9	0.06554932
37	0xbd1be686	-0.03806164
38	0x3daad835	0.083420195
39	0x3d095a1d	0.033533204
40	0xbdaa5ce4	-0.08318499
41	0x3d024086	0.031799816
42	0x3d92e580	0.0717268
43	0x3d664fb4	0.056228355
44	0xbceb6d9b	-0.028738787
45	0x3d983fd2	0.07434048
46	0x3da017ea	0.07817061
47	0xbdc4eee5	-0.09615878
48	0x3d85c607	0.06531911
49	0xbd0a7d6b	-0.033811014
50	0x3c7d7852	0.015470581
51	0xbdfa20cf	-0.12213289
52	0xbd3e9cda	-0.046536304
53	0xbd299255	-0.04139932
54	0x3cd7e9a7	0.026356531
55	0xbda121f2	-0.07867803
56	0xbcb16080	-0.02165246
57	0xbd871ec2	-0.065976635
58	0x3d652f06	0.05595305
59	0xbde5c208	-0.11218649
60	0xbdca591d	-0.09880278
61	0xbdbdb69f	-0.09263348
62	0x3dd234d4	0.102639824
63	0xbd97bf25	-0.07409505
64	0x3e0c0749	0.13674654
65	0x3d414588	0.04718545
66	0x3ce87b22	0.028379027
67	0x3e3acee1	0.1824298
68	0xbdc09cc8	-0.09404904
69	0x3dc1c2c0	0.09460974
70	0xbdd2a2c3	-0.102849506
71	0x3dcf6e5a	0.1012847
72	0xbc963913	-0.018337762
73	0x3da42080	0.080140114
74	0xbdaeadad	-0.0852922
75	0xbdb04398	-0.086066425
76	0x3ca4bdc6	0.020110022
77	0xbb566f7f	-0.0032720265
78	0x3b8878bc	0.0041647833
79	0xbd2611d3	-0.040544342
80	0x3e0b06a8	0.13576758
81	0xbc1e394f	-0.009657218
82	0x3d801af7	0.06255143
83	0xbd244ebe	-0.040114157
84	0xbd6bbb1b	-0.057551485
85	0x3e0371ab	0.1283633
86	0xbd564b73	-0.052318048
87	0x3c715f21	0.014732153
88	0x3cad44f0	0.021151036
89	0xbe0bb468	-0.13643038
90	0x3b004d3d	0.0019577288
91	0xbd05b3b7	-0.032642093
92	0x3dd92059	0.10601873
93	0x3dfb214c	0.1226221
94	0xbdd42923	-0.10359409
95	0x391d9084	0.00015026523
96	0xbc459ac4	-0.012060825
97	0xbde86d03	-0.11348917
98	0x3da482f1	0.080327876
99	0x3d23f177	0.0400252
100	0x3e13d88d	0.14438076
101	0xbd86bd56	-0.06579082
102	0x3d263609	0.040578876
103	0xbb14b644	-0.0022691647
104	0x3da70732	0.08155669
105	0x3c14dd62	0.009085985
106	0xbd7d7040	-0.061874628
107	0x3c1ba38d	0.009499443
108	0xbd50892d	-0.05091207
109	0x3d72493b	0.05915187
110	0x3dbc4042	0.09191944
111	0x3cf80b54	0.03027884
112	0xbde11a6d	-0.109913684
113	0x3defecb9	0.11715073
114	0x3db9a5bd	0.09064815
115	0xbc44c44a	-0.01200969
116	0xbd0833d9	-0.03325257
117	0x3e135dfb	0.1439132
118	0xbd19dd33	-0.037564468
119	0x3dd8eb29	0.10591728
120	0xbd5797f8	-0.052635163
121	0x3b82ea20	0.003995195
122	0xbe2645e3	-0.16237597
123	0x3e25c6c0	0.16189098
124	0x3e075242	0.13214973
125	0xbd91cc60	-0.071190596
126	0x3d0a6fc2	0.033797987
127	0xbdae9736	-0.08524935
128	0xbd0c95b9	-0.034322474
129	0xbda75aea	-0.08171637
130	0xbd296308	-0.04135421
131	0xbd75980e	-0.059959464
132	0x3d2c972e	0.042136364
133	0xbd2c53bf	-0.042072054
134	0x3df67f6d	0.12036023
135	0x3dfedc0f	0.124443166
136	0x3cfc6d2c	0.030813776
137	0xbca8a3ac	-0.020585857
138	0xbdb4f9cb	-0.08836707
139	0x3dc084d9	0.09400339
140	0xbdca9e46	-0.098934695
141	0xbde668ec	-0.11250481
142	0xbd6d3319	-0.05791006
143	0xbde2a128	-0.11065894
144	0x3d0e6fd9	0.034774635
145	0x3d19f1a2	0.037583955
146	0x3c8c79dd	0.017147953
147	0xbdc3135d	-0.09525178
148	0xbd0be374	-0.034152463
149	0xbdb3dc72	-0.08782281
150	0xbc4d2355	-0.012520631
151	0x3dd3c964	0.103411466
152	0xbd99c0b0	-0.07507455
153	0x3c89cdc7	0.016821755
154	0x3d30c058	0.043152183
155	0x3c0f3f4a	0.008743117
156	0x3c100517	0.008790276
157	0xbd8aec61	-0.06783367
158	0x3caafee3	0.020873493
159	0x3d8ba69d	0.06818888
160	0x3dfce512	0.12348379
161	0xbdc40248	-0.095707476
162	0xbd279f20	-0.040923238
163	0xbdfa028e	-0.122075185
164	0x3afd53b7	0.0019327317
165	0x3dd92640	0.10602999
166	0xbd9f1a90	-0.07768738
167	0xbdd88cfc	-0.10573766
168	0x3dd4d792	0.10392679
169	0xbcd33d6a	-0.02578612
170	0x3dfc3838	0.123154104
171	0x3bcec953	0.006310621
172	0xbc8bcfff	-0.017066954
173	0xbd869ebe	-0.065732464
174	0xbda748b0	-0.08168161
175	0x3dd38106	0.10327344
176	0x3de08195	0.10962216
177	0x3d88db88	0.06682497
178	0xbba41f76	-0.0050086332
179	0x3dadcfa8	0.08486873
180	0xbd8e35d0	-0.06943858
181	0xbd1b481d	-0.03791057
182	0x3d00bc57	0.031429615
183	0x3c89b780	0.016811132
184	0x3de1164b	0.1099058
185	0xbdac07d9	-0.08399934
186	0xbdbb8cfb	-0.09157749
187	0xbda50359	-0.08057279
188	0x3c3f4f1d	0.011676577
189	0xbdb63147	-0.08896118
190	0x3c58fc6c	0.013243776
191	0xbd652768	-0.055945784
192	0x3df6fcd5	0.12059943
193	0x3cd19f83	0.025588756
194	0x3d1da05c	0.03848301
195	0xbdeb225a	-0.114811614
196	0xbc95bf05	-0.018279562
197	0xbdca9231	-0.09891165
198	0x3ceddc6c	0.02903577
199	0xbd63a168	-0.05557385
200	0x3dad6b7c	0.08467767
201	0xbdbd7b6f	-0.09252059
202	0xbd5043b5	-0.05084582
203	0x3d0e028e	0.034670405
204	0xbd4ce999	-0.050027464
205	0x3dffb0bb	0.124848805
206	0x3da5af21	0.08090044
207	0x3d936794	0.0719749
208	0xbdd1d8db	-0.1024644
209	0x3deb8b28	0.11501151
210	0x3dfbe606	0.12299733
211	0xbb7aa91e	-0.0038247774
212	0xbd08f29f	-0.033434507
213	0xbc48ac7c	-0.012248155
214	0x3da55bdf	0.08074164
215	0x3db65cb3	0.089044
216	0x3d5519e9	0.052026663
217	0xbd046cb3	-0.032330226
218	0xbca00901	-0.019535543
219	0xbd9765e4	-0.07392481
220	0x3de4bae2	0.111684576
221	0x3cfae3c6	0.030626189
222	0x3d46ca69	0.048532877
223	0x3ded27f5	0.11579887
224	0xbd8c123a	-0.06839414
225	0xbd0d743d	-0.03453468
226	0xbc376a0b	-0.011194716
227	0x3db8ba38	0.090198934
228	0x3df67338	0.12033695
229	0x3cb36313	0.021897828
230	0xbdf17c9b	-0.11791345
231	0xbdcfb784	-0.10142425
232	0xbd7e9d62	-0.06216181
233	0x3d5b7d1d	0.053586114
234	0xbd8c6d94	-0.06856838
235	0x3bca101f	0.0061664726
236	0x3dd73833	0.10508766
237	0xbd241a88	-0.040064365
238	0x3d7c28d1	0.061562363
239	0x3d03235a	0.032016136
240	0xbdc37cf2	-0.09545316
241	0x3dd311cf	0.10306131
242	0x3d7b78cb	0.061394494
243	0x3d9bf688	0.076153815
244	0xbc8d9235	-0.017281631
245	0x3d2fc72e	0.042914562
246	0x3d2f2f47	0.042769697
247	0x3d5cb65c	0.05388485
248	0xbdcc110e	-0.099641904
249	0xbd19fa48	-0.037592202
250	0x3c362bf6	0.01111888
251	0x3ccd04f9	0.025026785
252	0xbbbaeeaf	-0.005704723
253	0x3ce75325	0.028237889
254	0x3d79a049	0.060943875
255	0x3d15459e	0.036443345

linear1.bias f4 [32]
0	0xbd86a6dc	-0.06574795
1	0xbcc9f9a9	-0.02465518
2	0xbd89b955	-0.067248024
3	0x3de87ad2	0.11351551
4	0x3dc627b0	0.096755385
5	0x3cc948c0	0.024570823
6	0xbc88ee62	-0.016715232
7	0xbc1f56c2	-0.0097252745
8	0xbd4adeab	-0.04952876
9	0x3dd2b5ca	0.1028858
10	0x3dba2680	0.090893745
11	0x3b5aee2d	0.0033406124
12	0x3c3e1374	0.011601318
13	0xbd3a2e1d	-0.045454133
14	0xbd8a83ef	-0.067634456
15	0x3e0c1628	0.13680327
16	0xbd3e7a80	-0.046503544
17	0xbdbc30f4	-0.091890246
18	0x3d1d4083	0.0383916
19	0xbdb8d4ee	-0.09024988
20	0x3d80b585	0.06284622
21	0xbc83f593	-0.01610831
22	0x3c5d74ce	0.013516618
23	0x3d8e4892	0.069474354
24	0xbcc8ce15	-0.02451233
25	0x3b0222eb	0.0019857239
26	0x3e09f9d9	0.13474216
27	0x3e0275a3	0.12740187
28	0xbd613455	-0.05498155
29	0xbddf000e	-0.10888682
30	0xbdec197e	-0.115283
31	0x3e027e54	0.12743503

linear2.weight f4 [1, 32]
0	0xbe33b33a	-0.17548838
1	0x3ea6e7e3	0.3259879
2	0x3c2b3ce1	0.010451526
3	0xbcfc3c6a	-0.030790526
4	0x3d2c4da2	0.042066224
5	0x3e83e404	0.257599
6	0xbf059db7	-0.5219378
7	0x3d705bde	0.05868136
8	0xbee6a049	-0.45044163
9	0xbea9370a	-0.33049804
10	0x3b032c6a	0.0020015487
11	0xbeb96a1d	-0.3621377
12	0xbe93ee69	-0.2889283
13	0xbd9b45cc	-0.07581672
14	0x3eda4253	0.42628726
15	0x3eec7a68	0.4618714
16	0x3e701bdd	0.23448129
17	0xbd8df37f	-0.06931209
18	0x3e550258	0.20801675
19	0xbf0107c0	-0.5040245
20	0xbc517dce	-0.012786342
21	0x3e9dbf4b	0.30810007
22	0x3dac1a37	0.084034376
23	0xbf147f18	-0.5800643
24	0x3de69a50	0.112599015
25	0x3e5a8912	0.2134135
26	0x3e171772	0.14755037
27	0x3f0353d5	0.5129979
28	0x3e0eb1bf	0.13934992
29	0xbb0b9f13	-0.0021304532
30	0xbcba1288	-0.022713915
31	0x3e5c4466	0.21510467
