data/cifar2/model_parameter.pkl (torch, 220207 bytes, 7 tensors)

conv1.weight f4 [32, 3, 3, 3]
00000000: ef32 53be 9e96 50bd d48f 6fbd c850 a7bd
00000010: 8e92 45bd ec8b 0d3e 5c00 453e 1006 3c3d
00000020: 85d6 c03d 76af 0f3e 7e36 15be 56bd 39be
00000030: b501 2e3e 2ac7 8cbd 308f ab3d d4bd f0bd
00000040: dbe5 3f3e dee3 2d3e bedc 2a3e d0ca 8bbc
00000050: bc25 76bd 8ff8 bf3d fa1f 513e 7588 b5bd
00000060: d85a 88bc 0e6b 9739 a26e 8ebd dcd9 a1bd
00000070: 31ec 91bc 612a 323e 6eab 8a3d 99ad 63be
00000080: ddaa 513d d8ad a13c 5d8e 4fbe 53e7 7e3d
00000090: b9b4 953d bdf7 70be fafe 3fbc 83f2 9cbd
000000a0: 508f 66be 6717 e4bd 654f 0c3d 4d27 bdbd
000000b0: daa5 af3d ee59 e9bd 204e 26be 8247 213e
000000c0: 12b2 433e 610e ecbc b290 6a3d f01f 823c
000000d0: 457e 053e a876 e8bd 573b 4e3e c031 66bd
000000e0: a398 3b3e e296 923e 3706 073e 7697 1e3e
000000f0: 877f 09bd 8f4f d7bd e867 04be 8504 0dbe
00000100: 017a 09bc 3513 0cbe dbbb 153d d083 a43d
00000110: 49e9 00be e692 1abe 8f2f a03d 1ad2 69be
00000120: 43ef 143e 5a24 e3bd 8e8e 69bd 1d80 0c3e
00000130: 3ea4 2a3e a405 86bd b46a c53d b3e7 403c
00000140: e33c 48be 5c9e d43c 38a5 bc3d c962 69bd
00000150: 90d5 9c3d 2b17 3fbe 8833 3cbe e15f 3ebd
00000160: ec94 9c3c c7c6 da3d 477e f6bc 2615 2e3e
00000170: e4e3 a1bb c022 f33d 55b7 683c 66f7 33bd
00000180: e5b4 33be 12a0 45bd ab42 983d cf4b 3bbe
00000190: 2362 26be e49a b6bd 3e7b a43d 8448 853d
000001a0: 8032 123e 6a34 c23d ea1d d6bd 1274 783d
000001b0: bca9 0dbe 8562 09be f613 37be a79d d2bd
000001c0: 7a0a b8bc e99a b03d 91bb 103e c608 393e
000001d0: 2996 21be a2e6 16be 907f 0f3d 3e8f 47be
000001e0: 7ec6 693d cbc6 8c3d d8c6 e0bd 2256 df3d
000001f0: b5a2 f63d 8dde 043e 8205 99bd 6832 873d
00000200: 6c72 05be c83b 5cbe 3c45 08be 43b8 f6bd
00000210: f477 29be 7b6d 1e3e 06f8 333e 5526 bcbd
00000220: ae43 56bd e160 9d3d d1e3 d0bc b030 c2bd
00000230: 7ad9 d63d f434 083e 4b30 06be 727f 93bc
00000240: d2cf 86bd 1bc7 603c 10bd dc3d 5c65 313e
00000250: 9a1e f2bd ad56 a13d 3daf 05be b970 1d3d
00000260: 07a9 11be 3a0b fd3d 9247 293d 3e82 2e3d
00000270: 7932 d33b 2822 39bb 119d d03d e766 b6bd
00000280: bc12 f33d f05e 38be 1500 f7bd 0071 0dbd
00000290: 2091 46be ff4e 333e 717e 00be d593 a7ba
000002a0: 5974 f63c 598f 6b3d 6d49 b73d e675 c83d
000002b0: a7b3 6fbd bf7d c63a dd52 13be aba0 cb3d
000002c0: f6f7 c33d b040 76bd 18b1 153e 0e25 aa3d
000002d0: 0eef bbbd 0798 ec3d f084 95bc d8b8 33be
000002e0: 367f 3abe c31c 723d beae 063e 33b9 253e
000002f0: b0e0 d1bd 1a1f c0bd 5508 af3d 83dc e03d
00000300: 5934 383e 7ffc 35be 25cd 1abe 8b07 453e
00000310: d6a6 2a3e 02a3 4abe d181 a33d c1f4 d63d
00000320: 32e6 8a3d 5f48 f8bd 2c32 783d 171a 36be
00000330: 1bc3 163d 8831 e83d 28bf 2fbe f796 9b3c
00000340: b0a9 c0bd 7745 afbd f02c 12be 492a 2dbe
00000350: 40bd 53be 9a81 29be 491a 72bd ada0 4cbd
00000360: 6e1c 88bb c0f6 fb3d 8ca9 3a3e a2dc 0a3e
00000370: 2d07 aabd e785 333e 8376 dabd a663 33be
00000380: 903b 1bbe d1be e73d 4ecd 13be 8104 cbbc
00000390: 0f15 bebd c0bc 03be f583 09be b9a0 36bd
000003a0: eebf 4fbd acd5 49be 1eeb a03c 53ee 503d
000003b0: 7c0c 30be d73e 3fbe 2f52 a4bd 498a e6bd
000003c0: bebc 563d 378e cc3d 5a73 293d a9f2 673e
000003d0: df79 ab3c 1cf3 f4bd 0075 bc3d cf16 a53d
000003e0: 514c 1abe c9d9 fdbb ec7a 293d d747 73bd
000003f0: 451b d4bd 5efb 343b 829c cd3d 5d7b e13d
-0.20624898 -0.05092489 -0.058486775 -0.08169705 -0.04823547 0.13822907 0.19238418 0.04590422
0.09415916 0.14031777 -0.14571568 -0.18138632 0.16992839 -0.06873925 0.0837692 -0.11754957
0.18740027 0.16981456 0.16685769 -0.017064482 -0.06009458 0.09373581 0.20422354 -0.08863918
-0.01664488 0.00028880726 -0.06954695 -0.079028815 -0.01781282 0.17398979 0.06770979 -0.22234191
0.05118834 0.019736215 -0.20269151 0.062232327 0.07309861 -0.23532005 -0.011718506 -0.07663443
-0.22515607 -0.11137276 0.034255404 -0.09236012 0.085765556 -0.11394106 -0.1624074 0.15749934
0.19110897 -0.02881545 0.0572669 0.01588437 0.13036449 -0.11350757 0.20139824 -0.05619979
0.18319945 0.2863074 0.13185965 0.15487465 -0.033568885 -0.105132215 -0.12930262 -0.13771255
-0.008390904 -0.13679202 0.036556106 0.08032954 -0.12588991 -0.150951 0.07821571 -0.22834054
0.14544396 -0.11090918 -0.057020716 0.13720746 0.16664216 -0.065440446 0.09639493 0.011773991
-0.19554476 0.025954418 0.092112005 -0.056978974 0.07657921 -0.18661182 -0.18379033 -0.046478156
0.01911398 0.10682445 -0.03008951 0.17000255 -0.0049404968 0.118718624 0.014203866 -0.04393711
-0.17549475 -0.048248358 0.07434591 -0.18290637 -0.16248374 -0.08916262 0.08031319 0.06507972
0.14277077 0.094826534 -0.104549244 0.06065757 -0.1383428 -0.13416488 -0.17878708 -0.10283976
-0.022465933 0.08623297 0.14134051 0.18069753 -0.15779938 -0.14736417 0.035033762 -0.19488236
0.057074063 0.06873854 -0.109754264 0.109051004 0.12042753 0.12975521 -0.07471754 0.06601411
-0.1303193 -0.2150718 -0.13307661 -0.12046864 -0.16549665 0.15471451 0.17575082 -0.09186999
-0.052310638 0.07684494 -0.025499256 -0.09481943 0.10490699 0.1330145 -0.1310436 -0.018005107
-0.06582607 0.013719345 0.10778248 0.17323822 -0.11822243 0.0787786 -0.1305513 0.03843758
-0.14224635 0.12355657 0.04132802 0.042604677 0.006445226 -0.0028249118 0.10186208 -0.08906346
0.11868808 -0.18004966 -0.120605625 -0.034531593 -0.19391298 0.17510603 -0.12548234 -0.0012785146
0.030084776 0.057509754 0.08949552 0.09788112 -0.05852094 0.0015143676 -0.14387079 0.09942754
0.09568779 -0.060120285 0.14618337 0.08307849 -0.091764554 0.115524344 -0.018251866 -0.17550981
-0.1821259 0.05910946 0.13152596 0.16183929 -0.10247934 -0.09380932 0.08546511 0.10979559
0.17988719 -0.17772101 -0.15117319 0.19241159 0.16665205 -0.19788745 0.07983745 0.10495902
0.067821875 -0.12123179 0.060594723 -0.1778339 0.03680716 0.11337572 -0.17162764 0.018992884
-0.09407365 -0.08558171 -0.14274955 -0.16910662 -0.20677662 -0.16553345 -0.0591071 -0.04995792
-0.0041537797 0.12302923 0.1822874 0.13560727 -0.0830215 0.17531548 -0.106671356 -0.17518482
-0.1515944 0.11315692 -0.14433786 -0.024782421 -0.0928136 -0.12864971 -0.13429244 -0.04458687
-0.050720148 -0.19710416 0.019643363 0.051008534 -0.17192262 -0.18676315 -0.08023488 -0.112568446
0.052426092 0.09988063 0.041369773 0.22651161 0.020932136 -0.11960432 0.092020035 0.08060991
-0.15068175 -0.0077469093 0.041376993 -0.059394684 -0.10356764 0.0027615647 0.10039617 0.11009858

conv1.bias f4 [32]
00000000: c8d6 b13a c6bb 5d3e 0ea0 98bc b16d 98bd
00000010: 8342 b83c 1c7a c1bd 2f77 f23d 1fbd ab3d
00000020: c179 96bd f207 143e 70ec 2a3e 3006 5fbd
00000030: abcf 293d 700e 09be 322a bc3c 5e34 493c
00000040: cbdc 11bd a789 433d 3ada 64bb b99d 87bd
00000050: ecf9 2f3c 66c9 dc3d 9d7a a1bd 3a91 02bc
00000060: 350e c53d 4094 31bd baf0 0b3e facb 63bc
00000070: 9035 53bd dd87 653e 8ba9 aebd 315f 5ebd
0.0013568038 0.21653661 -0.018631008 -0.07442797 0.022492653 -0.09447119 0.11839139 0.08385681
-0.073474415 0.14456156 0.16691756 -0.05444926 0.041457813 -0.13384414 0.022969339 0.012280552
-0.035610955 0.047738697 -0.0034920112 -0.0662188 0.010740738 0.10780601 -0.07884715 -0.007969195
0.096218504 -0.043354273 0.13666049 -0.013903612 -0.051564753 0.22415109 -0.085284315 -0.05429

conv2.weight f4 [64, 32, 5, 5]
00000000: 9147 94bc 1a7f 3c3c e50d acbc b931 b83c
00000010: abb9 b33c 5b11 293d da24 433d 3574 d6bb
00000020: b839 9d3c 6e54 76bc beed 163c c71e 87bc
00000030: ded6 b23a 4a21 2fbc bcff bebb c45b dfbc
00000040: e5fd 9a3c 035c 043d 7c64 0dbd 883a c73b
00000050: 08d2 d7bc 07ca 88bc de30 20bd c2cf d9bb
00000060: 76ad e3bc 56a4 cbb6 ac20 d3b9 4675 de3c
00000070: 640e 883b 9ba8 963c 4f78 c6bc 0e96 70bc
00000080: 4dad 01bc d981 45ba da85 b13c 68d5 56bb
00000090: c967 bbbc 49c2 cd3b 2add 5c3c c501 75bb
000000a0: d575 673c 919b e03b 7d99 7dbc d2f1 d33c
000000b0: 5071 0bbc f47d b03a ac1b 8ebc 71db 6a3c
000000c0: 4919 5bbc ac52 abbb 25ea 1a3d 3d1c 793c
000000d0: d7d3 c03c 8348 b83c 8be4 1f3d 5ba7 3f3c
000000e0: 8250 2c3a 0841 a1bc 60a0 e53b 2851 b53a
000000f0: 4e5f 033d 4c0c bf3c 36d0 263d 2c96 f33c
00000100: e5f4 bcbc 4927 153d 4fda fdbc 700d a0bc
00000110: 497c d23c 0554 82bc 6b02 843b b322 d53b
00000120: fb93 afbc c23e 6a3c c1b4 0dbd 8376 d53b
00000130: b8f1 2e3c a1c2 073c e5ba 9e3c 593d 653c
00000140: a46b 293b 1100 63bc da8d eabc 8d51 e9bc
00000150: aeb2 45bb 0962 323c f0f0 11ba a3ed 623c
00000160: 26aa b03b d5e0 aa3c a050 88bc 026b f63c
00000170: c5ae 353c 1091 dfbc 0922 ad3a 0a10 c6bc
00000180: 5355 2ebc d577 703c e7dd 7e3a ed6e 073b
00000190: 54e6 a93c 84e6 633c 8695 103d 4b94 983c
000001a0: 142d 47bc b357 d13c 3b00 8e3c e595 38bc
000001b0: 0971 643c 04fc 283d a829 043c 7ed4 44bc
000001c0: ee59 1f3c 58d0 adbc 80d7 523b 90da a23c
000001d0: eca2 0e3c e690 0cbc 573a e23c c9b9 e8bb
000001e0: 7006 d6bc b488 0ebb 4c5d f03c 9052 883c
000001f0: 74b0 b23b 484e b138 bac6 fa3c 794c 993b
00000200: c5d6 df3c 31f2 fcbb 5468 a3bc ab3a 9fbc
00000210: df4c 7abc e63b b0bc 634b 013c a2a2 4bbc
00000220: 2d8f 933c 4c75 f73c a728 8fbc 20a0 d3bc
00000230: 5506 05bd 5942 9e3c 4667 0dbc 74f9 74bc
00000240: c854 25bc 5b57 343c e1df 20bc 99d5 7d3c
00000250: 2c00 01bd 2a25 5e3b b9be 21bc 61d0 193d
00000260: d92a 7b39 deed cd3b 6f19 143b 2083 95bc
00000270: 0efc fabb 8a02 073d f730 c5bb 9fef e8ba
00000280: d1f6 c33c 275a 4fbc 2f43 eb3c f7a7 e83c
00000290: ff45 ccbb ad27 2fbb 4bbb f3bc 6c2c f83c
000002a0: 8e64 eabb 410a dcbc 0b4a e03b 1846 02bd
000002b0: ec4c 84bb 4c32 903b b5f2 10bd c9bb 493d
000002c0: db5f 663d 2bc4 5e3d 7c69 15bc 36a1 50bc
000002d0: 0641 d4bc d709 f6bc cc21 383d 511d da3c
000002e0: 79fa d23c 0e60 6b3c 1f8c 0dbd 0265 d83c
000002f0: 4eaf 283d 39cb f0bc 48c0 34bc d63b 76bc
00000300: 861f a13c 2f47 1d3d 43da a43b b19a e23c
00000310: 9a87 eebc 41d3 a1bb 751c c63c a273 d43b
00000320: 32ad 163d fea7 573d 1e77 9a3c 69c6 77bc
00000330: fc7c f53b a8f1 cfbc 0241 16bd b551 9d3b
00000340: 767b f7bb ee85 7f3c 27cf 45bc 1866 013b
00000350: 90fe d2bb e480 8cbc bda4 77bc aace 4eba
00000360: d60c bebc faeb 03bd 374a 0f3b d77e 8e3c
00000370: ab46 a9bc 28f8 e9bb 34b4 52bc 4d6c 813c
00000380: 2bd9 fcbc 23b8 fcbc 902a 223c 0082 ee3c
00000390: f3d2 0a3d 6e51 163d 392b 6bbc dd1c 163d
000003a0: 12fb 2b3d 88fd f5bc 4121 febc ecca d53c
000003b0: 2150 7c3a d1dc 87bc 46d9 2c3d cd7d b2bb
000003c0: fe5c e83c 8cec b93c 4af3 a0bc 3a21 d43c
000003d0: 5df6 03bd a8e0 0dbb 23af 5e3c 09d4 0a3d
000003e0: 65b4 00bd 4722 82bc 1759 f03c 88a7 da3c
000003f0: cb2e 823d 11b9 4f3d effe d83c 95c1 aabb
-0.018100532 0.011504913 -0.02100272 0.022484647 0.02193912 0.041276317 0.047642566 -0.0065446147
0.019192562 -0.015034778 0.009211956 -0.016494168 0.0013644358 -0.010689089 -0.0058288258 -0.027265437
0.018919894 0.03231431 -0.034519657 0.0060799755 -0.026345268 -0.016697897 -0.039109103 -0.006647081
-0.027792674 -6.0690027e-06 -0.000402694 0.02715553 0.004152106 0.018390944 -0.02422729 -0.014684213
-0.007914853 -0.00075343024 0.02167027 -0.0032781009 -0.022876637 0.006279264 0.013480464 -0.0037385088
0.014127214 0.0068544825 -0.015478489 0.025872145 -0.0085109025 0.0013465271 -0.01734718 0.0143345455
-0.013372728 -0.005228361 0.037820954 0.015204486 0.023538513 0.022495514 0.039036315 0.0116976155
0.0006573276 -0.01968433 0.0070076436 0.001383339 0.03207331 0.023321293 0.04072591 0.029734693
-0.023065994 0.03641442 -0.030987887 -0.019537657 0.02569403 -0.015909204 0.0040286086 0.0065043806
-0.021432867 0.014297189 -0.03459621 0.006514372 0.010677747 0.008286149 0.019376228 0.013991677
0.0025851512 -0.013854996 -0.028632093 -0.02848127 -0.0030166316 0.010887631 -0.00055672135 0.013850602
0.005391377 0.020859161 -0.016640007 0.030080322 0.011089032 -0.02729085 0.0013208996 -0.02417757
-0.01064046 0.014677008 0.0009722397 0.0020665482 0.020739712 0.01390994 0.035298847 0.0186254
-0.012156744 0.025554514 0.017334094 -0.011266206 0.013942965 0.041255966 0.008066572 -0.012013553
0.009726031 -0.02121751 0.0032171905 0.01987961 0.008705836 -0.008579468 0.02761571 -0.0071022254
-0.026126117 -0.0021748962 0.029341362 0.016640931 0.0054531638 8.454599e-05 0.030612338 0.0046783057
0.02732409 -0.007719301 -0.019947208 -0.019437155 -0.015277117 -0.021512937 0.007891509 -0.012428911
0.018012607 0.030207299 -0.01747544 -0.02583319 -0.03247674 0.019318746 -0.008630579 -0.014952052
-0.010091014 0.011007155 -0.009819002 0.01549282 -0.031494305 0.0033896663 -0.009872132 0.03755224
0.00023953187 0.0062844595 0.0022598167 -0.018251002 -0.007659442 0.032961406 -0.0060178 -0.0017771608
0.023921402 -0.012655771 0.02871856 0.028400404 -0.00623393 -0.002672653 -0.029752394 0.03029462
-0.0071531003 -0.026860358 0.006844764 -0.031805128 -0.00403749 0.004400527 -0.035387713 0.04925135
0.05624376 0.0543863 -0.009119388 -0.012733748 -0.025909912 -0.030033989 0.044954106 0.026625307
0.0257542 0.014366163 -0.034557458 0.026415352 0.04118281 -0.02939378 -0.011032172 -0.015028914
0.019668352 0.038397964 0.0050309016 0.027661653 -0.029117394 -0.0049385135 0.024183491 0.006483511
0.036786266 0.052650444 0.018855628 -0.015122988 0.007491706 -0.025383785 -0.03668309 0.004801
-0.0075525595 0.015595896 -0.012073315 0.001974469 -0.0064390376 -0.017151304 -0.01511496 -0.0007889072
-0.02319948 -0.032207467 0.0021864304 0.017394466 -0.02066358 -0.0071401782 -0.012860347 0.015798712
-0.030865273 -0.030849522 0.009897843 0.029114723 0.033892583 0.03669875 -0.014353567 0.03664862
0.041987486 -0.03002812 -0.031021716 0.026097737 0.0009624977 -0.016584786 0.042199396 -0.0054471255
0.028364655 0.022695802 -0.01964726 0.02589475 -0.032217372 -0.0021648798 0.013591561 0.03389362
-0.031422038 -0.015885485 0.029339356 0.026691213 0.06356581 0.050713602 0.02648875 -0.005211065

conv2.bias f4 [64]
00000000: f1a4 2d39 effa f5bc 2480 93bc 71fc 0abd
00000010: caf3 1f3d 485f bc3c fca4 7138 a8be 0fbd
00000020: 21b1 03bd 7db3 283c f90d 433b c9e5 c6bc
00000030: 08f3 ecbc d6a2 13bc 3c1c 983d 4a84 d33c
00000040: 3e5c bc3c 819e 4c3c 2f06 a6bc 2a6b 7d3b
00000050: 83a2 9fbc ad51 8dbc 0f85 613c a798 043d
00000060: 98ce 5c3c 99b4 bd3c 64d0 85bc f86f 20bb
00000070: 0871 95bc 959c c2bc 1e2a 93bb 5776 59bb
00000080: e217 13bd d729 e8bb 848f bc3c 0f59 2a3c
00000090: 0842 873c 0d74 253d bcb5 9d3b 5930 e83c
000000a0: ad68 213d 0c3e dcbc c38b 83bb d661 95bc
000000b0: c9eb 8b3d f58d 1cba c6af fc3b 7f5c a73c
000000c0: a034 2a3c 3a5f ef3c a440 c73c a0f1 3f3c
000000d0: 4d5b bd3c 6294 663c 6427 70bc cf4d d33c
000000e0: ebe6 293d 2518 d0bc 2d63 75bb f960 10bc
000000f0: 078b bb3c ead1 163c c4c8 543c fd90 d83c
0.00016560011 -0.030026881 -0.018005438 -0.033932153 0.039050855 0.022994652 5.761253e-05 -0.035093933
-0.032151345 0.0102967 0.0029762967 -0.024279492 -0.02892448 -0.009010991 0.0742726 0.025819916
0.022993203 0.012488962 -0.02026662 0.003866861 -0.019486671 -0.01725086 0.013764634 0.032372143
0.01347699 0.023157405 -0.01633472 -0.00244808 -0.018242374 -0.023756305 -0.0044911047 -0.0033182108
-0.03591145 -0.007085066 0.023017652 0.01039721 0.016510978 0.040393878 0.004812924 0.028343366
0.039406467 -0.026885055 -0.0040144636 -0.018235128 0.06832082 -0.0005972081 0.0077113835 0.020429848
0.010388523 0.029220212 0.024322815 0.011715323 0.023114825 0.014073463 -0.014657829 0.025793938
0.041479986 -0.025402138 -0.0037443147 -0.008812183 0.022893442 0.009205321 0.012987319 0.026436323

linear1.weight f4 [32, 64]
00000000: 8261 98bc fd30 85bd f023 9fbd ecc7 7e3d
00000010: 4b61 9ebd 865f bd3d 2d7d 463c 8039 cf3d
00000020: ded6 a5bd 89d2 bfbd 1f3f babd f876 f43c
00000030: cffa d9bd 9d37 cb3d 54b0 823c fd9c 8a3a
00000040: 078a 793d 53a2 803d a5db 00be dc76 38bd
00000050: 357f c23a 1e9a 3fbd bcde e1bd 2284 35bd
00000060: 45f5 77bd d2f4 bfbc decc c3bd 5db0 bdbd
00000070: 6cfe dd3d 5152 ed3d 5e55 c0bc 9143 2f3d
00000080: 9c85 d63c 4c5a a93b 9899 eebd 1a2c 92bd
00000090: 19e7 cdbd 006f 54ba 698a b6bd 8f5f d33d
000000a0: c3af d93d d6ab 96bc bbf3 d63d f07b 1abc
000000b0: 67d4 aabd 5b18 51bd 635e d7bc ba48 e2bd
000000c0: dda1 5bbc dcac e4bd b25f 4bbd 7105 b33b
000000d0: 2348 2c3d 7c3f 293c 014c 573c 00d4 fd3d
000000e0: e6e6 153d 2fac b83c cd00 8ebd 5fce 0fbd
000000f0: 8a55 943d fa88 d83d 4cc8 6f3c 9cba ac3d
00000100: 09ea 0e3e 43ca c3bd f465 0cbd 8554 073e
00000110: 361c d4bd ad73 f3bd 6119 773c ba88 f8bc
00000120: 4e16 2b3e ea5f 913d f6e6 2fbd 0ea2 1dbd
00000130: d438 a33c 2ca0 48bd 4ef8 0ebe fc26 e53d
00000140: 7375 cabc c0b9 c73d 0c42 d5bd b0c9 e03d
00000150: 150f 9d3d 79d6 0abe e853 06bd 0c0b ef3d
00000160: 0c20 cd3d 7f2c 92bd a11b 11be b651 a3bd
00000170: b280 093e a25b 7abc be87 d2bd 5d37 00be
00000180: 93fd 0ebe 3ba1 493c a38d e0bd 2df2 b9bd
00000190: 62ec 373d 6dae e3bd 1b6e fa3c 5cee 383d
000001a0: 9f8d 1ebe 557c 9cbd 99ef d93d 6ff6 543d
000001b0: 5aee f7bd d638 d2bd 8ecf 203e 7c26 0b3d
000001c0: ab29 ad3d 9032 f2bd 9696 693d cac7 03bb
000001d0: 95d9 373e 0af2 13be 9795 3abb 97de d83c
000001e0: 5e5d d03d 6903 f1bd 01ff 673c 4539 a83d
000001f0: 975d 7a3d db46 03bd 45f6 21bd 66d5 2d3d
00000200: b4bd 4ebd 0dd7 553d 9e54 ffbd d8b3 0bbd
00000210: 716b 733d 0014 5e3d 3e9e 2dbd ae4a 0d3d
00000220: 32e8 b13b e46e 35bd a48d 1d3d 6ef8 b2bd
00000230: 6fdc bf3d e560 c1bc cad2 b13d 6b94 de3d
00000240: 0018 003d f7ea e63d 9e3e 02bd 91ac 7cbd
00000250: 0950 b23d f72f c1bc 7542 013d 0097 febd
00000260: 7874 fcbd f4d9 6bbd 7d53 0b3d 6e53 e8bd
00000270: a2fe 183d e66d db3d 707f e3bc b070 253d
00000280: 0caf 8b3c 8260 8dbc 776a a1bd 0780 733c
00000290: 6131 ecbd 4c6f d0bd c187 333d 8611 44bc
000002a0: 1786 e8bd 1ded d0bd 06c9 ddbd 1aea f93b
000002b0: fe5c 983d ff41 bfbd f095 573b 7192 833d
000002c0: 93d8 f33d e63f dbbd 22a6 c83d a3f9 393d
000002d0: 9c4e a53c 525c fa3d 9e18 ef3d 37ed e4bd
000002e0: dbc6 d43b a1dd b5bc 3b7e 27bc a266 3fbd
000002f0: e8b0 f439 54f4 0ebd 4bbd 413d 306e c8bd
00000300: 6606 a2bc feac 963d d716 5bbd 6b38 f2bd
00000310: edb4 973d 3af0 343d c727 bc3b b888 fe3c
00000320: b3cb 04bc 0904 943d f46d feba 7fad 983d
00000330: 097d ee3d e7cc 073d 883c f7bd 12fa cdbc
00000340: 757b d73d 172a b1bc 6f08 8abd 5f83 f2bd
00000350: 7ff3 b9bd 02a0 3c3a b354 2ebd c19c c4bd
00000360: 3ee0 f2bd 8ae9 febd d0b9 fb3c 70e7 f3bd
00000370: c4e4 893d a6cb b73d 3ed7 db3d 7a6e f0bd
00000380: fa69 763c fb33 6f3d 0351 5f3d 4360 fd3d
00000390: 76e0 ab3d 2a5b f0bd 7b7a e9bd 96fe a13d
000003a0: 2fd5 103d d057 423d a89f 95bc 95d4 babd
000003b0: 47b6 923d 13e5 d9bd a14e ad3d 00ee 66bd
000003c0: 9c6a 8b3d 8f85 8e3d 6306 b7bb 5190 f8bc
000003d0: 8a28 94bc bab4 21bd 9e47 36bd 5922 543d
000003e0: 8df4 cd3d 8731 d53d a434 bc3d 775c bcbb
000003f0: 143a e2bd 4385 1e3d cbc0 5d3d f812 db3d
-0.018601183 -0.065034844 -0.077705264 0.06220238 -0.07733401 0.09246735 0.012114805 0.10118389
-0.08097623 -0.09366328 -0.09094071 0.029841885 -0.10643541 0.09922717 0.01595322 0.0010575351
0.06092265 0.06280961 -0.12583788 -0.045035228 0.0014838936 -0.046777837 -0.11028811 -0.044315465
-0.06053664 -0.02343217 -0.0956056 -0.09262154 0.10839543 0.11587966 -0.023478206 0.042789046
0.026186757 0.005168235 -0.116503894 -0.07137318 -0.10053844 -0.00081036985 -0.089131184 0.10320961
0.10629227 -0.018392485 0.10495707 -0.009428963 -0.08341294 -0.051048618 -0.026290124 -0.11049028
-0.01340529 -0.11165783 -0.04965181 0.005463295 0.042060982 0.010330077 0.013140679 0.123939514
0.036597155 0.022543041 -0.069337465 -0.03510892 0.07242878 0.10573001 0.014635157 0.084340304
0.13956465 -0.09560063 -0.034276918 0.13215835 -0.10356943 -0.11887298 0.015081734 -0.030338634
0.16707727 0.07098372 -0.04294487 -0.038484626 0.019924559 -0.048980877 -0.13961908 0.11189076
-0.024714207 0.09752226 -0.10412988 0.10975969 0.07668892 -0.13558377 -0.032794863 0.11672029
0.10015878 -0.07137393 -0.14170696 -0.079745695 0.13428 -0.015280636 -0.10279797 -0.1252112
-0.13963918 0.012306507 -0.10964515 -0.090793945 0.044903167 -0.111172535 0.03057008 0.045149192
-0.15483712 -0.07640902 0.10641403 0.05199283 -0.12106009 -0.10264747 0.15704176 0.03397225
0.08455213 -0.1182605 0.057028376 -0.0020108097 0.17954095 -0.144478 -0.002847051 0.026473327
0.101740584 -0.117682286 0.014159919 0.08214048 0.06112441 -0.032049995 -0.0395415 0.04243984
-0.050473884 0.05220704 -0.12467311 -0.03410706 0.059428636 0.054218292 -0.04238724 0.03449505
0.005429291 -0.044295207 0.038465157 -0.087387905 0.09368216 -0.023605773 0.08682783 0.10868152
0.03127289 0.11275285 -0.031797998 -0.06168801 0.08706672 -0.023582442 0.03155752 -0.12431145
-0.12326902 -0.057580903 0.034015168 -0.11344038 0.03735221 0.10714321 -0.027770728 0.04039067
0.017051242 -0.017257933 -0.07881635 0.014862067 -0.11532856 -0.10177478 0.043830637 -0.011967069
-0.113537006 -0.10201476 -0.10829358 0.007626784 0.07439612 -0.0933876 0.0032895766 0.06424416
0.11906543 -0.10705547 0.09797312 0.045404088 0.020179085 0.1222464 0.11674617 -0.11178058
0.006493432 -0.022200407 -0.010222967 -0.046728738 0.00046671112 -0.03490098 0.047299664 -0.097866416
-0.019778442 0.073572144 -0.05348858 -0.11827167 0.07407556 0.04417441 0.0057420465 0.031071052
-0.008105206 0.07227332 -0.0019411431 0.07454967 0.11644942 0.033154394 -0.12072092 -0.025143657
0.105215944 -0.021626515 -0.0673989 -0.11841463 -0.09079646 0.0007195474 -0.042561244 -0.09600211
-0.11859177 -0.12446888 0.03072825 -0.119093776 0.06733087 0.0897439 0.107344136 -0.11739822
0.015039915 0.05839918 0.05452062 0.12371876 0.08392422 -0.11736138 -0.114003144 0.079098865
0.035359558 0.047447026 -0.018264607 -0.09122578 0.07163673 -0.106393956 0.08462263 -0.05637932
0.068074435 0.06959068 -0.005585478 -0.030342253 -0.018085737 -0.039478995 -0.044501893 0.05179057
0.1005641 0.10409837 0.09189728 -0.0057483274 -0.11046234 0.038701307 0.05413894 0.106969774

linear1.bias f4 [32]
00000000: f573 a9bd 0ec5 9d3c 95f0 853b ac30 80bc
00000010: 24a7 2abd 19c9 b9b9 878e 153c 4ea6 173d
00000020: 9327 0a3e 679c dbbd 5d04 4dbd 68e4 9ebd
00000030: 20a1 cfbc 119b b83d 1674 8abd 92c2 febc
00000040: 3a45 00be e2f0 ee3c 972c 30bd 2074 01bd
00000050: e206 4e3d eb59 e73c 951f c4bd 527e 203c
00000060: 3dd4 3f3c cae7 1f3e f6c8 973d a2b0 753d
00000070: c318 a83d 19e2 b1bc 55b3 1c3d f449 b43d
-0.0827407 0.019259002 0.0040875175 -0.015648209 -0.041663304 -0.0003543578 0.009128219 0.037023835
0.13491659 -0.10723191 -0.05005299 -0.07758409 -0.025345385 0.090139516 -0.06760423 -0.031098638
-0.12526408 0.029167596 -0.043011274 -0.031604886 0.050299533 0.028241118 -0.09576336 0.009795742
0.011708316 0.15615764 0.07411377 0.059982903 0.08207848 -0.021714257 0.03825696 0.08803168

linear2.weight f4 [1, 32]
00000000: eaa3 8b3d ea30 e7be 22d4 9c3d 4096 d33d
00000010: b98c 2ebc 341a 19be 09f3 6cbe be50 c0be
00000020: eb83 133f 9599 09be 60ad 5fbd 084b 2dbe
00000030: c8f2 0a3e 68a4 c63e c9b5 483e 50f7 6e3b
00000040: 0bbc 163e 30f8 003e de6a e8be 0ca9 70bd
00000050: 8c7a a8be a2fe c33c b7c3 e5bd 76d1 8c3d
00000060: 38f8 823d 84f7 433f aad3 09bd 9cc2 2dbf
00000070: c472 b8be c6ad c93c c32c c2be 9a88 96be
0.068183735 -0.45154506 0.076576486 0.10331392 -0.010653668 -0.14951402 -0.23139586 -0.375616
0.57623166 -0.13437493 -0.054608703 -0.16923153 0.13569176 0.38797307 0.19600596 0.0036463328
0.1472017 0.12594676 -0.45394033 -0.058754966 -0.32905996 0.02392513 -0.1121897 0.06875889
0.06395 0.76549554 -0.033649124 -0.67875075 -0.3602506 0.024618994 -0.37924775 -0.29401094
