data/imdb/model_parameter.pkl (torch, 164883 bytes, 6 tensors)

embedding.weight f4 [10000, 3]
00000000: b800 13c0 9abe 11bf bedf 2dbf 0000 0000
00000010: 0000 0000 0000 0000 5ad8 b63f e6ce b53f
00000020: e371 d8bb 13f5 cd3f 9eb5 5ebe ca0d 2f3f
00000030: 0961 d3be de03 95bf 1c5c e43c b579 cf3e
00000040: e03e 093d 7e9f 30be 5940 2cbf eb0f 793e
00000050: 3162 993e e17f 6f3f bb29 0c3f 9810 29bf
00000060: 851d 53bf 0db1 a7bf 2d43 0a40 fc97 26bf
00000070: 3e18 ca3d 2c70 d4bf 5c95 35bf 7777 8abf
00000080: fe4d 8d3f e7a2 11bf 29f6 023f 2f2c f9bd
00000090: ec8c 06bf 0ab5 1cbf 0253 5c3f 7b01 973d
000000a0: 0538 4dbf dccf 85bf 8d34 043f 32fc 6fbf
000000b0: 1296 e3bd b846 963f 86c5 d4bf 079b 973f
000000c0: a9c3 29bf e37c 963f ce8a afbf 071f 60be
000000d0: 6b76 923f c909 56bf d0f1 913d c9c6 163e
000000e0: 4a34 b63f e876 2bbe 1ece 9fbd 16fc 97bc
000000f0: 6a17 623f 49a9 5fbf a3ed 11be bb6d 0c40
00000100: f52c 2a3e b298 c93f 370e 31bf f003 98be
00000110: 6a9e ad3f eb6a 1a3f 017d 723f 6b68 62bf
00000120: b859 81bd b698 b3be a278 77bf ecf4 e1bf
00000130: b653 f8be 6928 d53e 2150 6a3f 8a61 0bbf
00000140: 7b90 0bbf 5ce1 b7bf 6b44 dbbe 1c3d 09bf
00000150: 00de 3a3f 132b 1cbf dc95 77bf 6895 373f
00000160: 5687 813f 898d 5c3d 4b96 313f 04b4 adbe
00000170: bc44 5ebf 4287 7d3f ad0d 193f 7874 4a3f
00000180: 4b17 02c0 1a5e 223f be56 46bf 9b74 c3bf
00000190: fe31 8fbd 0731 78be 8a11 c4bf 62a8 c33e
000001a0: 2d29 3bbf 5af3 c9be 4907 44bf 38f2 74bf
000001b0: 26d8 2fbe 9b64 193f c882 ca3f 7d96 75bf
000001c0: dd93 d73e 4808 f8bd 8172 2ebf 3506 363e
000001d0: 8f3d e3bf 16de 143f 0705 803f d4cd e13d
000001e0: 4c54 843f e466 7ebd cf79 efbc 8d8d cfbf
000001f0: 7a7b 8c3f 00c1 66bf 8ba5 be3e 97ce 37c0
00000200: ccc0 c0be 2353 9fbf b334 18bf 74ea 9f3f
00000210: a81a 41bf f42d 44be b3e1 543f 995b d93f
00000220: f64f 2a3e 46bc bd3e 9125 d3be 3372 863e
00000230: 5a32 1340 6010 2d3f d385 143e 240c 04bf
00000240: 0059 a03d adb6 a6be fed9 30bf 8f29 873f
00000250: 9b61 5cbf 0ffd 92bf 40bd 72bd 3eec ad3f
00000260: 3553 d93d 08ae 36bf ae1e 2d3f 1515 4ebf
00000270: 8271 713f 5b3d ae3f c261 733d 8d1b a4bf
00000280: f77c a8bd f464 9abf ee15 663f 69c0 9b3d
00000290: 4f03 b63d be97 5a3f 01cd 72bf b9ce dd3e
000002a0: 49c1 093f 2f0d 0840 4577 903f 89e0 ac3e
000002b0: 9cb8 d73e dd75 36bf f6e3 b8bf 3e82 953f
000002c0: e895 eb3f 19bc e43f 3a3d aa3f 4efb 1d40
000002d0: 3c67 28be 64e6 243e 308f cdbb 5b0e c8bf
000002e0: db6f cebd 0512 dc3c e575 ef3e 5fa2 513f
000002f0: 16f9 573e 4392 febd d1aa cfbe d6b5 573e
00000300: 97d0 e13e 6b2f d7bf 921e 9ebc 7489 c2bf
00000310: 37c8 953f 6620 80bf 1d6e 43be 0dbb 663d
00000320: 7a79 1a3e dcac 42be 9368 5f3e 03b2 2fbf
00000330: eccd 1cbf 7384 58bf 866d 363e bc81 343f
00000340: db59 76bd 8669 5c3e 9ae8 e43d d9ac 883f
00000350: 7bcb 85bf 864d 92bd 4ef6 c5be 1705 d63f
00000360: b1c1 d63d 4aa1 8a3e 1157 26bf eb6a 0440
00000370: 65af b43f 88f3 f43d ba93 943e 27a3 06bf
00000380: 066c 903e 083e bf3e 53e6 153e 742a b2bf
00000390: 4bdc 4cbf 23ec dc3e 73b3 f8be 9a67 0bbd
000003a0: dabd 913e 4a40 dfbe dfe5 bc3f 7868 f7bd
000003b0: 0ae0 9bbf 27b1 c8bf a768 f3be 2216 a53f
000003c0: faa7 0a3f 38e1 043f 8abf 93bf 3158 833f
000003d0: ae54 c13e 95a5 f1be 597e cdbf 4c07 d9bf
000003e0: bde8 a93f bdc0 acbe 21d9 ed3f e2f5 1ebe
000003f0: b2f1 e7be 836a 6fbf 2aaa 2d3f 5ef9 b2be
-2.2969189 -0.5693146 -0.6791953 0.0 0.0 0.0 1.4284775 1.4203765
-0.006605373 1.6090416 -0.21748969 0.68380415 -0.4128497 -1.1641805 0.027875952 0.40522543
0.033507228 -0.17248341 -0.67285687 0.24322478 0.29957727 0.935545 0.54751176 -0.66040945
-0.8246692 -1.3100907 2.16035 -0.6507566 0.09867905 -1.6596732 -0.7093103 -1.0817708
1.1039426 -0.56889194 0.5115686 -0.121666305 -0.5255878 -0.61213744 0.8606416 0.07373329
-0.80163604 -1.0454059 0.51642686 -0.93744195 -0.11112608 1.1740332 -1.6622779 1.1844186
-0.6631418 1.1756862 -1.3714235 -0.21886836 1.1442388 -0.8360868 0.071262 0.14724268
1.4234707 -0.16744578 -0.078029856 -0.018552821 0.8831698 -0.87367684 -0.14250807 2.1941974
0.16618712 1.5749724 -0.69162315 -0.29690504 1.3563969 0.60319394 0.9472199 -0.8844058
-0.063159406 -0.35077447 -0.96668446 -1.7652869 -0.48501366 0.41632393 0.91528517 -0.5444571
-0.54517335 -1.4365649 -0.42825636 -0.5360887 0.72994995 -0.61003226 -0.9671304 0.7171235
1.0119426 0.053845916 0.69369954 -0.33926404 -0.8682363 0.9903451 0.5978649 0.7908397
-2.0326717 0.6342484 -0.7747611 -1.526996 -0.06991957 -0.24237452 -1.5317852 0.38214403
-0.73109704 -0.39443475 -0.76573616 -0.95682096 -0.17172298 0.59919137 1.5821161 -0.9593275
0.42104998 -0.121109545 -0.6814347 0.17775805 -1.7753161 0.58151376 1.0001534 0.11025587
1.0338225 -0.062109843 -0.029232888 -1.6215073 1.0975182 -0.90138245 0.37235674 -2.8719842
-0.37647092 -1.2447246 -0.5945541 1.2493424 -0.754313 -0.19158155 0.8315689 1.6981078
0.16632065 0.37057704 -0.41239598 0.26259002 2.2999482 0.6760311 0.14504175 -0.51581025
0.078294754 -0.32561246 -0.6908263 1.0559558 -0.86086434 -1.1483477 -0.059262514 1.358772
0.106115736 -0.713593 0.6762494 -0.8050092 0.94313824 1.3612474 0.0594194 -1.2820908
-0.0822696 -1.2062058 0.8987721 0.07605059 0.0888735 0.8538779 -0.9484406 0.4332178
0.53810555 2.1258047 1.1286398 0.33765057 0.42133033 -0.71273595 -1.4444568 1.1680372
1.8405123 1.7869903 1.3299935 2.4684634 -0.16445631 0.16103512 -0.006273173 -1.5629381
-0.100799285 0.026864061 0.46769634 0.81888384 0.21091112 -0.12430241 -0.4056001 0.21065459
0.44104454 -1.6811346 -0.019301686 -1.5198197 1.1701726 -1.0009887 -0.19084974 0.05633073
0.15085402 -0.19011253 0.21817236 -0.68631 -0.6125171 -0.845771 0.17815217 0.7051046
-0.060144287 0.21524629 0.11177178 1.0677749 -1.0452722 -0.07143693 -0.38664478 1.6720303
0.104861625 0.2707618 -0.649766 2.0690258 1.4116026 0.119605124 0.29018956 -0.525927
0.28207415 0.37352014 0.14638643 -1.3919206 -0.8002364 0.43148908 -0.4857441 -0.03403435
0.28465158 -0.43603736 1.4757651 -0.12080473 -1.2177746 -1.5679063 -0.4754078 1.2897379
0.5416256 0.51906157 -1.1542828 1.0261289 0.37759918 -0.47196642 -1.6054183 -1.6955352
1.3274151 -0.33740798 1.8581887 -0.15523484 -0.45301586 -0.935219 0.67837775 -0.34955877

conv.conv_1.weight f4 [16, 3, 5]
00000000: 949f 973d 984b bd3d b659 473e 23dc 023a
00000010: 4c83 7d3d afa2 61be 5d04 16bd 442c ffbd
00000020: d752 243e d442 843e 5703 923e 4d1a 81be
00000030: 3e79 8f3e 65bd a7be 97ed 66be 58ea 573e
00000040: 3637 0f3d 45b8 813d 196a ba3e da9f a73c
00000050: 57fc a13e e86a 283e d186 07be 8ba2 d13d
00000060: c3dc fd3d 12c8 d3be d69b eb3d 017f ac3e
00000070: 5ff5 b13c 9937 cebd bc85 a0be f758 88be
00000080: b2fc 633e 8fb2 9cbe ce33 8b3e 537b 283e
00000090: 8b75 d9bd 8d3b edbd 1558 77be 620c d23e
000000a0: 11e3 82be 3f4e 9a3d daa2 843d 0be4 94be
000000b0: 4aa5 cebe 54c8 933e 13e9 9fbd 384e f93d
000000c0: 222c e2bd 0871 62be ffe0 83be 1441 303e
000000d0: b849 2cbe 6033 e4be 0e1e 973e 4662 433e
000000e0: 9732 273e f40f e93c 95e9 11bd 8f1d 7a3e
000000f0: f4af 963e 58bc 6e3e f7f4 61bd 4cc5 463e
00000100: e779 8b3e 63ad 11be ed1f 1ebe b4bc e13d
00000110: 3300 77be cd47 c33d f7fc 41be 2c81 883e
00000120: f31f 96be 6cba d33e edef 70bd a1a1 3abb
00000130: 57dd 9b3e 7c93 97bd 5c3a 193c 1df2 d1bd
00000140: 27d2 fe3d 8382 19be b6c1 04be b213 e2bd
00000150: 32ea dc3d 2d73 9fbe 23dd 903e f66b 5b3e
00000160: 63f6 5e3d 27f6 d2be e4ef 0b3e 7ad2 04be
00000170: a3fa 19be 54f9 2b3e 7a23 a1be c135 f43c
00000180: aa94 0cbd c6ce 133e 3781 bc3d 18f6 90bd
00000190: b55e 1fbe 2fc4 ef3e 2437 13be a53e 563d
000001a0: d37a 23be b69d b4bd 3d78 85b9 8c2e c93e
000001b0: 3984 c0bc c4f8 31be 319a bd3d 8ab8 a33e
000001c0: 1975 babd e5e5 4dbe b98a a2be ccbd 573e
000001d0: ab56 86be f0ee 4a3e 3bbd e03d 6008 77be
000001e0: 13a1 06be 01ac 3f3e a0fd 20be f6f1 4dbe
000001f0: 98a3 08be a9d9 f8bd 0735 57bd 4e2b c73d
00000200: 28a0 dd3d 1768 973c fcee 2b3c e049 323d
00000210: abe6 bcbe 6b03 abbe e5bf d7bb 3fd7 933e
00000220: 74b3 afbd bd7e edbe 1c9f 8b3e a172 86be
00000230: 3a37 f43b c830 de3d 5921 3bbe ef79 633e
00000240: 931d babe 1ab5 f33e ed8d ba3d e0b9 223e
00000250: 11e7 433e dfe2 813d 4038 9ebc 2994 01bd
00000260: c91d 4ebe 1909 00bc 682e 33bc 336c 9bbd
00000270: fa32 ac3e 6529 a9bc 1fbe 80be 1950 203e
00000280: 916f 11bc effb 823e 4e31 bd3e 9244 ecbe
00000290: b6e7 a13e 2d05 9e3e 3336 8a3e 54b4 ab3e
000002a0: 24ef a1be a437 103e 8796 a43e 1c50 52be
000002b0: 322d 783c bef0 033e 8322 2bbb 1942 523d
000002c0: 9695 c8be ca1f 89be 4e0c b03e 0e14 11be
000002d0: d38a a53d 81d4 013e 5960 9ebe 4a2e 893e
000002e0: b2ab 26be 25aa acbe 00b3 2bbe 922d 8dbe
000002f0: bb5d 3ebe 13c9 67be d049 b4be 2693 683e
00000300: 1f82 1ebe da28 793e 2d3c ea3d 63cd 783e
00000310: a67c bebd 89ff abbe d0a8 64be 9457 543d
00000320: 7a9e ad3d b4a7 b2be 0cf9 86be fcd4 b03d
00000330: b293 f03e 20a3 db3e 47fd 6bbe 0937 2abe
00000340: c2a6 233e cbb5 7b3e c989 24be d0f6 02be
00000350: 5654 b4bc 83f0 4bbe 9905 063e d9a2 833e
00000360: a5bb 6a3d 856c c0bd ca5f f13e c4be d5be
00000370: 1d34 263e 2c02 1d3d 011e 86bd a12c 6c3e
00000380: 4e6c 88be 19b0 873e 5665 e4bd 8dee 223e
00000390: e0e3 74be 0f5a 48be 1af6 a73e 829e a6be
000003a0: 1595 ab3e cecf 51be 47cb 60bd bd66 a6be
000003b0: 0c37 37be 3015 bebe fc3c c4be c7e9 f4bc
0.07403484 0.09242934 0.19467816 0.00049919094 0.061892793 -0.22034715 -0.036625255 -0.12459615
0.16047226 0.25832236 0.28518173 -0.25215378 0.28022188 -0.32761684 -0.22551571 0.21085489
0.034964763 0.06333975 0.3640907 0.020461965 0.31637833 0.16447031 -0.13235022 0.10236081
0.123956226 -0.4136358 0.11504333 0.33690646 0.021723447 -0.10069198 -0.3135203 -0.26630375
0.22264364 -0.3060498 0.2718796 0.16453294 -0.10618123 -0.11583624 -0.24154694 0.41025072
-0.25563863 0.075344555 0.06476374 -0.29080233 -0.4036048 0.28863776 -0.07808127 0.12173122
-0.11043574 -0.2211343 -0.25757596 0.17212325 -0.16824996 -0.44570446 0.29515117 0.19080457
0.16327892 0.02844999 -0.03562315 0.24425338 0.29431117 0.23314035 -0.055165257 0.194112
0.27241442 -0.14226298 -0.15441866 0.110223204 -0.2412117 0.09535179 -0.18944155 0.2666105
-0.2932125 0.41353166 -0.05882256 -0.0028477686 0.30442306 -0.07401177 0.009352293 -0.102512576
0.12442427 -0.14991193 -0.1296452 -0.11038913 0.10786857 -0.3114256 0.28293714 0.21427903
0.05443419 -0.41203424 0.1366573 -0.12970915 -0.15037017 0.1679433 -0.3147238 0.029810788
-0.034321465 0.14434347 0.09204333 -0.07078189 -0.15563472 0.46829364 -0.14376503 0.052305836
-0.15964822 -0.088191435 -0.0002545732 0.39293325 -0.023500549 -0.17380053 0.09257925 0.3197673
-0.09104366 -0.20107229 -0.31746462 0.21068496 -0.26237997 0.1981771 0.10973593 -0.24124289
-0.13147382 0.18717958 -0.1572175 -0.20111832 -0.13343656 -0.121508904 -0.052540805 0.097250566
0.10821563 0.018482251 0.01049399 0.043527484 -0.36894736 -0.33401045 -0.006584155 0.28875157
-0.0857915 -0.46385756 0.27269828 -0.2625933 0.0074528726 0.10849148 -0.1827444 0.22214483
-0.36350688 0.47599107 0.091091014 0.15891218 0.19131114 0.063421 -0.019313931 -0.031635437
-0.2012855 -0.007814669 -0.010936357 -0.07588997 0.33632642 -0.020649621 -0.2514505 0.15655555
-0.008876697 0.25582835 0.3695168 -0.46146065 0.31622094 0.30863324 0.26994476 0.33536017
-0.31627762 0.14083725 0.32146093 -0.20538372 0.015147494 0.12884805 -0.00261131 0.051332567
-0.39176625 -0.26782066 0.34384388 -0.14167807 0.08083119 0.1267872 -0.30932882 0.26793128
-0.16276434 -0.3372356 -0.16767502 -0.2757383 -0.18590443 -0.22635297 -0.35212564 0.22712383
-0.15479325 0.2433199 0.11437259 0.24297099 -0.093011186 -0.33593395 -0.22330022 0.051841334
0.08477493 -0.34893572 -0.26361883 0.086343735 0.46987683 0.42897892 -0.23045836 -0.16622557
0.15981582 0.24581067 -0.16068186 -0.12789464 -0.02201287 -0.19915967 0.13088073 0.2571018
0.057307858 -0.093956985 0.47143394 -0.41747105 0.16230817 0.03833215 -0.065486915 0.230639
-0.2664513 0.2650154 -0.11152141 0.15911312 -0.23915052 -0.19565605 0.32804948 -0.32542807
0.33512178 -0.20489427 -0.05488136 -0.32500258 -0.17892092 -0.3712554 -0.38327777 -0.02989663

conv.conv_1.bias f4 [16]
00000000: c54c 35be 2d86 52be 20c1 0dbe 69e1 e23d
00000010: 3b62 95be 65a0 62be 990c 7bbe 5086 75bd
00000020: 2081 33ba 2a9a fc3c aa83 343d 2465 5ebe
00000030: 7344 c2bb eb88 593e e08b 1b3d 84a2 7dbe
-0.17705067 -0.20558996 -0.13843203 0.1107815 -0.29176506 -0.22131498 -0.24516524 -0.059942544
-0.0006847549 0.03083523 0.044070877 -0.2171827 -0.00592857 0.21243636 0.037975192 -0.24769026

conv.conv_2.weight f4 [128, 16, 2]
00000000: e612 3f3e 2fcf fcbc 53e4 57be de53 793e
00000010: 566f 8abe 3d54 3c3e 876d 283e 6f37 80bd
00000020: c248 a83b cbc1 19be 3c1a c93b 9c29 42be
00000030: 78a3 1cbe eb7f 14be 0cc7 f43d edc4 b6bd
00000040: b93f acbe 54c6 02be 67d1 8b3e 923d e63d
00000050: 0255 29be b70d c3bd c820 183e ab7c 26bd
00000060: 1d27 dc3d 1da0 e2bd 343c 89bd bbcf 053e
00000070: 4adc ca3d 5646 6f3d 9494 93be 86bb 85be
00000080: 251c 87bd 8162 4d3e 77d7 003e 36bf 30be
00000090: 6100 04be 0a26 08be fb4f 5abd ed31 4bbd
000000a0: a3f0 eabc a0fc 39be 9edc 8ebe 0f8e 053e
000000b0: 5d30 533e 41e4 423e daa6 653d 95ab 17be
000000c0: a060 243e 7f70 9f3b 7982 2bbe ff6e f3bd
000000d0: 0b61 c4bd 0e40 593e 420b 423e f469 13be
000000e0: 7446 7ebc 9059 22be 3dfd 9a3d ab57 23be
000000f0: 3424 fe3d 50aa 54be 34d3 35bd d6bd 5dbc
00000100: 1407 47be 23d0 533e 52ca 10bd 03fa b0bc
00000110: 7111 0abe af8d 1dbe 7f86 d13d 4ef4 05bd
00000120: d0eb 313a 2143 533e b700 613d 9ab3 49be
00000130: 2367 fb3d c4a4 df3c 803a d23c 820d 5fbe
00000140: 6ec6 8d3d b7c8 823d 3c35 93bc 8261 15be
00000150: 5e96 3bbd e63d 0fbe bcbd cbbe 04df 143e
00000160: cdb3 bdbc 1771 283e 5899 4d3b 3e41 183d
00000170: dd6b a1be 4ecc c93c 4a46 103e ac8d 2a3e
00000180: eb6f 8cbe 1d1c 93bd 3f88 023e 4494 46bd
00000190: 82a9 d43d 24b9 5ebd 7e54 1d3e d036 61bd
000001a0: 6373 d1bd 3388 a1bd 8f4d a6be 8632 39be
000001b0: 2a09 66be 0316 e3bb 3e67 443c 4e43 4bbe
000001c0: 2db8 90be 7727 6dbe c482 253e 8f1f f0bd
000001d0: 30ac 783e 13fd 7fbc 97dd ebbb eff3 453e
000001e0: acba 483e f08a 193e 2cea d33d 098a 2fbd
000001f0: b86d e83d f996 573e fc3b dbbd 7d2c 573e
00000200: fd9a e8bd a4e9 a63d 82e4 6dbb 9ddb 58bd
00000210: b936 bdbd a232 1dbe 0a3f 8b3e 95e0 2cbd
00000220: 533f 7bbe 90a6 133e 14d0 97be 5b91 09be
00000230: 7ce4 c43d 291e 843d 8bd4 a8bd ed5f ea3d
00000240: 2188 38bd 6ef4 a13d b61d 6fbe 3df2 2f3e
00000250: dd4f e1bd dd9e d23b e081 133e fad8 9fbe
00000260: 5405 963c 74cf 383e a89d 2d3e 3025 81be
00000270: a45d 1f3d 0cf9 003d 4c53 64bd 7eef 463d
00000280: 4d4a adbd b656 89be 90fd 293e 401e a73d
00000290: 7bb1 ee3d cfd1 bcbd 9eee 11be 6398 983c
000002a0: e237 27be 3aa7 413e c139 89be 24b0 433d
000002b0: 8f3e a0bd 09f6 58bd 3997 713d c42e e53d
000002c0: 81ca 5d3d b16d 1e3d 8322 f23c b7a3 ce3c
000002d0: b63d 6cbd a768 59be eb5d 513e 70e1 58bd
000002e0: ef94 283e 9172 f8bd d4fe 6c3d 2297 efbd
000002f0: 3f6a 5c3e f608 0d3e 546c 46be b091 33bd
00000300: bcf6 f2bd 6110 a33c b340 50be e967 9d3d
00000310: ede1 55be 9027 06be 52c5 233e 2864 353e
00000320: b979 e0bc 4149 153e f8a9 11be 148c b9bd
00000330: 34ab 51bc 906a 44bd 4691 033e 8742 94be
00000340: b2c5 afbd fe20 a63c 7e70 66be 1b59 68be
00000350: d948 963b e3e3 80bd 1295 86bd 90b0 423e
00000360: c51e 0f3e e93b d1bd 3a0e 693b 36ac be3d
00000370: 36cc be3d ab76 3fbe d056 b13c da2e 0d3e
00000380: d07e 5dbd 8ae5 a1bd e9cb 933e 3825 f3bd
00000390: 7629 04bd 5901 1cbe 097b 1a3e bf88 04bb
000003a0: 052d 1b3e fe98 14be b9e6 5a3e 7383 0b3e
000003b0: 3c1c 5c3e c415 d2bd 73a6 6fbe 000d efbd
000003c0: 8484 f9bd 8578 58be d07f 8fbd d5d3 783d
000003d0: dafb 62be ef57 22be 3de1 07bd 2a5f 89bd
000003e0: 8228 923b f77f 27be 8c0a afbd 8bef 5abc
000003f0: caad b33d 4112 48be eecb 8f3e fbb5 e3bd
0.18659553 -0.030860512 -0.21083193 0.24348399 -0.27038068 0.1839151 0.16448031 -0.06260573
0.0051356265 -0.15015332 0.0061371606 -0.18961185 -0.15296733 -0.14501922 0.11952028 -0.08924279
-0.33642367 -0.12770969 0.273082 0.11242212 -0.16536334 -0.095241 0.14856255 -0.040646236
0.10749648 -0.110656954 -0.06700936 0.13067524 0.09905298 0.058416687 -0.28824294 -0.26119632
-0.06597165 0.20057108 0.12582193 -0.17260441 -0.1289077 -0.13295761 -0.05329893 -0.04960816
-0.028679198 -0.18162775 -0.27902693 0.13042472 0.20623918 0.19032384 0.056067325 -0.14811547
0.16052485 0.0048657055 -0.1674899 -0.11886405 -0.09588822 0.21215841 0.18949607 -0.14395887
-0.015519727 -0.15854478 0.075678326 -0.15951411 0.12409249 -0.20768094 -0.044390872 -0.01353403
-0.19436294 0.20684867 -0.035349198 -0.02160359 -0.13483216 -0.15386079 0.10230731 -0.03270369
0.0006787153 0.20631076 0.054932322 -0.19697419 0.12275531 0.027300246 0.02566266 -0.21782497
0.06922613 0.063859396 -0.01796972 -0.14587978 -0.0457977 -0.13988456 -0.39793193 0.14538199
-0.023157025 0.1644939 0.0031371918 0.037171595 -0.31527606 0.024633553 0.14089313 0.16655606
-0.27429137 -0.071830966 0.12747286 -0.04848124 0.103838935 -0.054375783 0.15364262 -0.054983914
-0.102270864 -0.07887306 -0.32481048 -0.1808568 -0.22464433 -0.0069301142 0.0119875055 -0.19849893
-0.28265515 -0.23159586 0.16163164 -0.11724769 0.24284434 -0.015624302 -0.0071980464 0.19331335
0.1960246 0.14994407 0.10347399 -0.04285625 0.11349052 0.21053685 -0.107048005 0.21013065
-0.11357687 0.08150032 -0.0036299531 -0.052943815 -0.09238953 -0.15351346 0.27196532 -0.042206366
-0.24535875 0.14419007 -0.2965094 -0.13434355 0.096138924 0.06451065 -0.08243664 0.11444078
-0.045051698 0.079079494 -0.23351178 0.1718225 -0.11001561 0.0064276294 0.14405012 -0.31220227
0.018313088 0.18047887 0.16954672 -0.25223684 0.038907662 0.03148751 -0.0557435 0.04856824
-0.084614374 -0.26823968 0.16600633 0.081600666 0.116549455 -0.09219705 -0.14251181 0.018627351
-0.16329911 0.18911448 -0.26801875 0.047775403 -0.07824432 -0.052969012 0.058982108 0.111905605
0.0541482 0.03867883 0.029557472 0.02522455 -0.05767604 -0.21231328 0.20445983 -0.05294937
0.16463064 -0.12131227 0.05786021 -0.11698748 0.21524905 0.1377295 -0.19377261 -0.04384011
-0.11863467 0.019905271 -0.20337181 0.07685835 -0.20886965 -0.1310103 0.1599324 0.17713988
-0.027401792 0.14578725 -0.14224994 -0.09059921 -0.012797166 -0.04795319 0.12848386 -0.28957006
-0.08582629 0.020279404 -0.2250385 -0.22690241 0.004586321 -0.06293466 -0.06571402 0.19012666
0.13976581 -0.10216505 0.0035561458 0.093101904 0.09316294 -0.18697612 0.02164784 0.13787404
-0.054076016 -0.07905109 0.2886651 -0.11872333 -0.032266103 -0.15234889 0.15085997 -0.0020223109
0.15153892 -0.14511487 0.21377076 0.13624363 0.21495146 -0.10258058 -0.23403339 -0.116724014
-0.121834785 -0.21139725 -0.070068 0.060748894 -0.22166386 -0.15853857 -0.03317379 -0.06707604
0.0044603953 -0.16357408 -0.085469335 -0.013362776 0.08773382 -0.19538213 0.28085274 -0.111186944

conv.conv_2.bias f4 [128]
00000000: a3aa 723d 0e1c 0cbe 812a 1bbe 47b0 02be
00000010: 7e19 82bd f588 8cbc 244f 233d 0389 b93c
00000020: 13a5 b53d edbc 1abd 4d1b d8bd 657f ca3d
00000030: bc6e db3d 5cf7 00be 5546 5fbd ab4b a93d
00000040: 02eb 4c3d 461d 113e 22a3 8d3c df49 12be
00000050: d165 d73d 509e 983d 5517 86bd 6ce4 21be
00000060: efaa 563d dc8a 9b3d 64d5 a0bd af81 59bd
00000070: 4a9b 243c 8e3c 693c 3644 213e 5504 a03d
00000080: 1601 263a 631e 1b3d a6fc 73be b5d0 f7bc
00000090: 8b64 273d 81fb d1bb e5c5 b73d 1043 acbd
000000a0: 949c 21be cf1b 003e 4014 023d a298 c23d
000000b0: cd3b 2c3e ea6e 233d 3c1b e8bc 6246 33be
000000c0: b884 0f3e 2d6f b83c 824f 78bd d73a 0c3e
000000d0: 0edc 423d 58a9 3bbe ab3d 20bd e538 cfbc
000000e0: a803 373e 7364 b33d 81e7 743d e215 dbbd
000000f0: b969 9bbd adb4 423e 9382 0ebe d60c 45be
00000100: a85e 813c ac72 3fbe 1039 2ebd 6009 dbbd
00000110: e215 d53d 2ca2 1a3e 4f8a 433d cee8 ccbd
00000120: d39e 58bd cbd3 1f3c 5d58 a23d af72 bc3d
00000130: 71a9 a33d cbd0 c3bd 1d7f 9f3d ce46 4ebe
00000140: e3ae 27be 1c7e bb3b e759 96bd e151 26be
00000150: efb5 683d 7fc5 4c3e 22a5 a5bc 9058 d53d
00000160: 383f b6bd 3fe3 3cbe 7c07 49be 2992 44be
00000170: 0aa8 e8bd 10f8 4cbe a8b8 24be 5514 2ebe
00000180: 029b 9e3d cdb8 34be 7847 2b3e 9058 b03c
00000190: 0a69 c2bd b457 fe3b 3a17 43be 6674 86bd
000001a0: 686c 993c c1a9 203c afbf 34be aaa4 26be
000001b0: 9c12 31be c820 e7bd 2ee2 3ebe e78d 93bd
000001c0: 3eb4 9e3c 4c9f 183d fd76 053b aa46 7fbd
000001d0: 99fc 763d e78f 063b f386 e4bc c893 d43d
000001e0: e833 333e 6de2 5ebd de29 143e 3aa8 07bd
000001f0: 7448 84bd fbce d93d 7e5f 13be ae5f d9bc
0.059244763 -0.13682577 -0.15152933 -0.12762557 -0.063525185 -0.01715515 0.039870396 0.02264834
0.08869376 -0.03777783 -0.10552082 0.0988758 0.1071448 -0.1259436 -0.054510433 0.08266386
0.05002881 0.14171323 0.017289702 -0.14285992 0.10517467 0.07452071 -0.06547419 -0.15809792
0.05240911 0.07594845 -0.07853201 -0.05310219 0.010046789 0.014235629 0.15748677 0.07813326
0.0006332559 0.037870776 -0.23826846 -0.030250886 0.04086737 -0.0064081554 0.08973292 -0.08411229
-0.15782386 0.12510608 0.031757593 0.09501769 0.16819687 0.039900698 -0.028333299 -0.17507318
0.14015472 0.02251395 -0.0606227 0.1369432 0.04757314 -0.18326318 -0.03912131 -0.025295684
0.17872488 0.087593935 0.05979109 -0.10697533 -0.07588524 0.19014235 -0.13916998 -0.19243178
0.015792206 -0.18696088 -0.042534888 -0.106951475 0.104045644 0.15100926 0.047739323 -0.100053415
-0.05288584 0.009755085 0.0792701 0.09201562 0.07991303 -0.095613085 0.07787917 -0.20144197
-0.16375308 0.0057218205 -0.07341366 -0.16242172 0.05681413 0.19997214 -0.020220343 0.104172826
-0.08898777 -0.18446063 -0.19631761 -0.1919638 -0.11360176 -0.20016503 -0.16086066 -0.16999944
0.07744409 -0.17648621 0.16726482 0.021526605 -0.09492691 0.00776192 -0.19051829 -0.0656517
0.01872845 0.0098060975 -0.17651246 -0.16273752 -0.17292255 -0.112855494 -0.18640968 -0.072048
0.019373056 0.037261292 0.0020365112 -0.06232325 0.06029949 0.002053255 -0.02789638 0.103797495
0.1750027 -0.054415155 0.14469096 -0.033119418 -0.06459132 0.106351815 -0.14391896 -0.026534881

dense.linear.weight f4 [1, 6144]
00000000: 4d73 1d3e 3966 c4bb 45ad 233b 5b36 37bd
00000010: 206a 153c 85ff df3d b526 68bd 4fc1 a7bd
00000020: 6532 65be 9d93 f13a 3bfc 2fbe b32a dd3d
00000030: 449f 993d 6e6d 3cbd 27aa 803c ff27 173e
00000040: 7774 b93c 25ce b7bb b5af 9b3d 4445 a03d
00000050: 9a41 c43d 03ee bd3d c0bd 17bd fea2 cd3d
00000060: c83a 363d 32ad 1ebe c53d 973c 307b a03d
00000070: 246d 52bd 813c 193c 1c47 093d e447 8fbc
00000080: 6128 06be 93fa 88bd 43fd b6bd f8f7 1dbc
00000090: 467f 9c3d 99be 62bc 8a8f 52bd c3e2 0bbc
000000a0: 36e7 af3c 3592 96bd e37d 1abc a5a9 32bd
000000b0: 3c7d f5bb e9ca 8cbd 4dc1 1ebe 0b2f 933b
000000c0: a023 c6bd 9966 df3c 574c edbc f2f3 873d
000000d0: 1bab 973d d628 babd cd57 1d3e 56a9 69bc
000000e0: d9d9 c2bd 1593 61bd 9350 2d3e 6718 823d
000000f0: 3431 95bb 542a 20bd 52a6 28be f935 81bd
00000100: dc17 8fbc 4f73 d9bd 829c 15bd 65c4 3a3e
00000110: f116 8e3d 53ea 6c3c 6328 213e 65c6 92bd
00000120: 9ca8 81bd a371 22be 5a00 0fbe e59d 993b
00000130: 7384 403c 620b 81be bd61 01be 738f 05be
00000140: 2f10 21bd 266e be3d fdd3 ac3d 6540 cebd
00000150: c822 833c eeec 083e 37d0 c9bb 8909 5abd
00000160: 00bd c1bc 0e3d 00bc a2b9 9d3b e344 f7bc
00000170: ab89 eb3d fd55 6cbc af18 473e 2dfd 873d
00000180: 3312 72bd 0616 0a3e 0f2c 603c e805 48be
00000190: bad8 9d3d 8ad3 8b3c a9f8 81bd 7caa db3d
000001a0: 28e8 3abd 80ef 843e c2b5 03be 5d8f 48bd
000001b0: c28a 0dbe 778b 153d 161e 0e3e fd6f 47be
000001c0: eb2c 0b3e a15e 37bd e1ba bfbc a74d ccbd
000001d0: a25c 90bd 0712 69bd 1b3b 583d 6417 4ebe
000001e0: eda9 efbd d1ea 7f3d f202 d03d d97d 6cbe
000001f0: f3a0 d4bd 4617 4fbe 4413 49be b280 a13d
00000200: c84c e0bd b808 253e e6f2 be3d 1d59 983c
00000210: 033d 8fbd 61cb e1bb 49e6 e2bd 825f c6bc
00000220: 4562 803d f661 88bd 317c efbd 8b49 353d
00000230: cf69 b53d ca09 873c f90e c9bd aedc 26bd
00000240: f58d 85be 03d2 b93b 31bd 17bd ed49 74bc
00000250: a0dc a5bd a0de 47bc 2fdd a1bc bbf9 3abe
00000260: d6f4 fc3d 4ae8 0d3d 3510 723c a7aa 43be
00000270: 12a2 0f3a 53f4 51bc e549 61bd d94b 68bd
00000280: af22 4e3d 8322 9abd 09e1 94bb 20de 5abd
00000290: e54c 4b3c 478a aabc b2f0 d13d 4240 02be
000002a0: c048 37bd 64d4 22be 5903 41be 2394 42be
000002b0: 241e dbbd a0e0 133d f449 ec3c 78a0 abbd
000002c0: 71f1 f5bc 199f 753d 8d07 e43c bc78 38be
000002d0: b314 13bd e5d4 7fbd c2b2 043e 35e8 7fbd
000002e0: 18a0 37be 7154 1abd d33a 3fbe a3ec 27be
000002f0: d33b 6a3d 5c34 09be 0d04 a3bd 5b5d 5cbe
00000300: 5867 903d f7a0 9bbe ca13 2bbe bf2b d33c
00000310: 2652 b6bd cfc0 d5bd 681a 1bbe 1ac2 ad3d
00000320: 747b b0bd 934c 90bd ac43 64bc ce0b 523d
00000330: a91e e93c 59ba fabd b1da 2bbe 41b5 fdbc
00000340: 677e e83d 8c4e f6bd fa54 e23d 2d6c cdbd
00000350: 51a7 c03d fa38 eebd 2fb6 663d e55f 3ebe
00000360: 154e 153c abd5 f2bc f9fd cb3d 22cb e53c
00000370: 2895 b53b 3450 363d 5356 be3d 866c 31be
00000380: 746c a0bc 6b65 313e 092e 633d 47a5 33be
00000390: 271c ce3c d3b8 493d aca5 5e3e 9e52 e23d
000003a0: 8b73 3a3d 6e9e 903d 2de6 e83d 7234 eabb
000003b0: d4ef a43c 6009 0dbd 4bbf d03c 5e7f 663c
000003c0: 6cc3 e0bd f937 e23c b590 f7bc 55ea 7ebc
000003d0: bd0a 143d dbbf cabd e47f 283d d737 d63d
000003e0: b0c0 96bc 48da 42bd dc50 673d 5080 1abd
000003f0: 046f 10bd d589 fd3d 2b75 6ebc 2e7a 1a3c
0.15376015 -0.005993631 0.0024975103 -0.04472957 0.00911954 0.10937408 -0.05667754 -0.081911676
-0.22382505 0.0018430833 -0.17186062 0.1079916 0.07501081 -0.046002798 0.015706135 0.14761351
0.022638543 -0.005609291 0.07601873 0.07825711 0.09582825 0.09273913 -0.037046194 0.10040854
0.044489652 -0.15495756 0.018462071 0.07835996 -0.051373616 0.009352804 0.03351508 -0.017490335
-0.13101341 -0.06688418 -0.089350246 -0.00964164 0.07641463 -0.013839387 -0.05140642 -0.008537951
0.021472555 -0.073521055 -0.009429428 -0.043618817 -0.0074917357 -0.068746395 -0.15503426 0.004491692
-0.09674764 0.027270602 -0.028967066 0.06638326 0.07405683 -0.0908982 0.15365525 -0.014261564
-0.095142074 -0.05507191 0.16925268 0.06352311 -0.0045529846 -0.039102867 -0.16469696 -0.063091226
-0.017467432 -0.106176965 -0.03652621 0.18238981 0.069379695 0.014460164 0.15738063 -0.07166747
-0.06330988 -0.15863661 -0.13964978 0.004688012 0.011750328 -0.25203997 -0.1263494 -0.13043003
-0.039322075 0.09298353 0.08438871 -0.10070876 0.016007796 0.13371632 -0.0061588543 -0.05323175
-0.023649693 -0.007827057 0.004813389 -0.030184215 0.115008675 -0.014424798 0.1944301 0.06640086
-0.059099387 0.13484964 0.013682379 -0.19533503 0.07707353 0.017068643 -0.06346256 0.10725877
-0.045631558 0.25963974 -0.12862304 -0.048964847 -0.13822463 0.036509957 0.13878664 -0.19476314
0.13591354 -0.04476798 -0.02340454 -0.099757485 -0.07048918 -0.056901958 0.052790742 -0.2012611
-0.11702333 0.062479798 0.10156812 -0.23094882 -0.10382261 -0.20223722 -0.19636256 0.07885875
-0.10952145 0.16116607 0.09323673 0.01859718 -0.06994059 -0.0068906997 -0.1107908 -0.024215464
0.062687434 -0.066593096 -0.116936095 0.04425959 0.08858072 0.01648416 -0.09817309 -0.0407378
-0.26084867 0.0056707873 -0.03704566 -0.014910203 -0.080987215 -0.012199074 -0.019758789 -0.18259327
0.12351386 0.034645356 0.014774372 -0.19108067 0.00054791674 -0.012814599 -0.055002112 -0.05671296
0.050326046 -0.07526114 -0.004543428 -0.05343449 0.01240847 -0.020817889 0.10250987 -0.12719825
-0.044747114 -0.15901333 -0.18848933 -0.19001822 -0.10699108 0.03610289 0.028843857 -0.08380216
-0.030022355 0.05996618 0.027835632 -0.18014807 -0.035908412 -0.06245889 0.12958816 -0.06247731
-0.17932165 -0.037678186 -0.18674783 -0.16398863 0.05718596 -0.1339888 -0.07959757 -0.21519987
0.07050961 -0.30396244 -0.16706768 0.025777696 -0.08902387 -0.10437166 -0.15146792 0.084842876
-0.08617297 -0.070458554 -0.01393215 0.05128079 0.028457003 -0.12242574 -0.16782643 -0.030970218
0.11352234 -0.120267004 0.11051364 -0.100303985 0.09406913 -0.11631961 0.056326088 -0.18591268
0.0091128545 -0.0296429 0.09960551 0.028050963 0.0055414625 0.04451008 0.09293809 -0.17326555
-0.019582964 0.17323844 0.055463824 -0.17543517 0.025159908 0.049248528 0.21742886 0.11050914
0.045520347 0.07061468 0.113720275 -0.0071473652 0.02013389 -0.03443277 0.02548184 0.014068453
-0.10974774 0.02761458 -0.030220369 -0.015558799 0.036143053 -0.09899875 0.04113759 0.10459869
-0.018402427 -0.04757145 0.056473598 -0.037720025 -0.035262123 0.12379805 -0.014554302 0.009428544
