src/model_parameter.pkl (torch, 219247 bytes, 8 tensors)

net.layers.0.weight f4 [32, 1, 3, 3]
00000000: bb02 183e 7751 7a3e be23 8fbe d865 093e
00000010: 887d 883d 1b2c babe ec99 e43e 32f7 e7bd
00000020: fa75 38be 6d76 df3d 43a9 43bf 6ab1 263f
00000030: bfb1 163f a586 79bf e7c5 d5be 6626 fb3e
00000040: d3dc f43e 2b75 9abe ed60 2f3a f6d1 efbc
00000050: 7f58 31bd 7999 6dbd 0d4b b9bb 16bc abbd
00000060: 2f96 5dbd 3f08 73bd 58bb 703c 38b7 07bf
00000070: 1224 983e ceab d23e b745 efbe 79d4 e8ba
00000080: 8abc 733e 3cec 1bbe 5565 173d 6e2e b23c
00000090: 07dc 22be 8baf a73e f826 8f3e 8ab1 053e
000000a0: 6770 a93d f340 4cbf 327d 2e3d 57c3 ebbe
000000b0: c384 ec3e f68e 253d 1313 88bd 799e b1bd
000000c0: 5a5c 9bbd 00df ebbc de95 133e db6d 943a
000000d0: 7071 32be 98da 353e 5efd 56be 263e e0bd
000000e0: afbc 1d3e 8985 92be a5d6 d43e 5978 eabd
000000f0: 5145 993e 9ccb e3bb 056e 25be 3b63 88bd
00000100: b4cb 12bc a736 853d c11e 78be b729 babd
00000110: 7601 45be 7e45 863e ff09 803d 704a 57be
00000120: c52e 24bd 6e3f ec3c babd 0b3f b3c9 c4bd
00000130: 87ea 30bf 01d6 d1bc 1936 8d3e 2f0c 7abe
00000140: fe7e 293e 6ee4 0cbf 8e18 a93e c764 123d
00000150: afe8 09be c424 323f 0a45 e6be cdbd 393d
00000160: 3800 173e 4d70 d9be 5c4c a93e d635 a0be
00000170: 500b 423d daa0 e93d 8c87 11bc 33eb 1e3e
00000180: da6a f8bd 35fb 8fbd d84f 583e 04cf d8bc
00000190: 0505 5b3d e20b e33d 5945 fcbc c32d 2dbe
000001a0: 234a 653e a780 bb3d b631 45be eec9 60bd
000001b0: ea05 f7bd b01b 05be 3c57 493d 94dd 4f3e
000001c0: 45ae ba3d ccc3 2f3d 69c3 11be 79bd 88be
000001d0: 85c0 7cbe 8315 833d f20d 6d3d b9a1 11bb
000001e0: 254b 34be 7878 99be 06e5 d1be fe83 48bd
000001f0: 32eb 733e af32 b13e 9535 b83e edd9 0fbc
00000200: caca eabe 15ab 05be 35a4 233f 57d3 89bb
00000210: cc54 b9be 9fb1 41bb 0dc2 52bc a92e 9d3e
00000220: 79ab 6f3e 4a56 9c3c bb95 aebe 12f4 d3be
00000230: 2b35 68be 929b f8bd e182 8a3e dc51 1d3d
00000240: 96ae 90bd 5ae4 0cbe f54e 0a3c 089a c93d
00000250: f689 53be 738f 03bf 46d2 afbe 0d7b 2a3e
00000260: dc72 343e 19fd d6be 5dc2 e9bc 4803 953e
00000270: b3a0 2a3e 8a14 3fbe 408e 60be 2f7a ba3e
00000280: 0d6e 573e 99ad c3be a0fe 9cbe 636c b1bd
00000290: 8795 0cbe 5635 fe3e 8c45 ed3c 1027 cb3d
000002a0: 4c5f c4be eba7 603d e74c bcbd 2477 143f
000002b0: b73d 98be 5d8d 12be b915 2e3e 568e 3abf
000002c0: d26a 803e 5daf 2fbe 4e74 87be 5283 ba3e
000002d0: 032e 013e 2c9e cd3e a0ae b43e f0a6 8ebe
000002e0: f9bd b43d 6ce8 5f3e c9c3 ddbe 5846 fdbe
000002f0: 190d fbbe cd34 67be eaa8 c3be 317f e4be
00000300: 1120 afbe a949 d9bd 25b7 4bbd df3c 1b3f
00000310: 096d 0a3f 184d 113f 4bf8 56bd bd7a 57bd
00000320: e0ac 873e e5b0 863d 38ff cf3e 7504 b4be
00000330: 6c83 11bf ec43 96be bf34 aabd 4fc4 62be
00000340: dfcf 34be bea6 ccbe 4e5a 8d3e 7a4f f2bc
00000350: dd2d 8a3e 9657 80bd a917 a73d 8135 5e3d
00000360: d2df 803e 2b98 bcbe ded1 1f3f 66c3 c13d
00000370: 33de 273e dc6a 1e3f 0c53 97bd 76e2 d5be
00000380: 87ef 85be 610f 1dbe ea48 9d3e c0b6 c93e
00000390: be54 cb3e 0556 2a3d a4c7 6bbe d74d b2be
000003a0: 69a3 cbbe ae2b 16bc 3ce8 2abd fbf8 733e
000003b0: c81b 81be d1e6 d8bd d9de 9d3e f90d 463e
000003c0: b41f acbe 95fc 87be 97e1 a7bd c921 383d
000003d0: ff54 9dbe b220 423e 81e9 d33b 2274 6cbe
000003e0: 672b 823e d9d7 06be 3421 343e fd17 d6bb
000003f0: bc1f a63d 7fe8 863e cd62 9ebe 44c4 bf3e
0.14844792 0.24445139 -0.27956957 0.13417757 0.06664568 -0.36361775 0.44648683 -0.11326446
-0.18013754 0.1091126 -0.7643015 0.6511446 0.5886497 -0.97471076 -0.4175255 0.49052733
0.47824726 -0.30167517 0.0006690163 -0.029274922 -0.043297287 -0.05800769 -0.0056546987 -0.08385484
-0.054098304 -0.059334036 0.014693104 -0.53013945 0.2971502 0.41146702 -0.46732876 -0.0017763517
0.2380239 -0.15226835 0.036961872 0.021750655 -0.15904246 0.32751116 0.27959418 0.13056007
0.08273392 -0.79786605 0.042599864 -0.4604747 0.4619504 0.04041954 -0.06644263 -0.086728044
-0.07585974 -0.028792858 0.14412639 0.0011324243 -0.17426085 0.17759168 -0.2099509 -0.10949354
0.15404008 -0.28617504 0.4157001 -0.11448736 0.29935697 -0.0069517624 -0.1615525 -0.06659552
-0.008959699 0.06504565 -0.24230482 -0.09089988 -0.19238839 0.26224893 0.062519066 -0.2102449
-0.040083665 0.02883884 0.54586375 -0.096087836 -0.6910786 -0.02561474 0.27580336 -0.2441871
0.1655235 -0.55036056 0.33026546 0.03574064 -0.13467668 0.6958735 -0.44974548 0.045347024
0.14746177 -0.4246849 0.3306607 -0.31291074 0.04737407 0.11407633 -0.008882415 0.15519409
-0.12129755 -0.07030336 0.21124208 -0.0264659 0.053471584 0.11086251 -0.030794786 -0.16911988
0.22391562 0.09155398 -0.19257244 -0.054880075 -0.12061675 -0.12998843 0.04915546 0.20299369
0.091152705 0.042911336 -0.142347 -0.26707056 -0.24682815 0.064005874 0.057874627 -0.0022221638
-0.1760679 -0.29974723 -0.40995044 -0.048954003 0.23820189 0.3460898 0.3597838 -0.008779985
-0.4585784 -0.13053544 0.63922435 -0.004206102 -0.36197507 -0.0029555333 -0.012863648 0.3069966
0.23405255 0.019084115 -0.3409861 -0.41397148 -0.22676532 -0.12139048 0.27052978 0.038408145
-0.070645496 -0.13758984 0.008441676 0.09843832 -0.20658097 -0.5139076 -0.34340113 0.16648503
0.1762194 -0.41989973 -0.028535062 0.29104066 0.16662864 -0.18660179 -0.21929264 0.36421344
0.21038075 -0.38218382 -0.30663013 -0.08663251 -0.13728915 0.49650067 0.028963827 0.0991956
-0.38353956 0.05484764 -0.091943555 0.57994294 -0.29734585 -0.14311738 0.17000474 -0.7287344
0.25081497 -0.1715674 -0.2645592 0.36428314 0.12615208 0.40159738 0.35289478 -0.27861738
0.08825297 0.21866006 -0.43313435 -0.4946773 -0.4903343 -0.22578736 -0.3821481 -0.4462829
-0.34204152 -0.10609753 -0.049735207 0.60639757 0.54072624 0.5675826 -0.052482884 -0.052607287
0.2649908 0.06576709 0.40624404 -0.3515965 -0.5684116 -0.29348695 -0.08310842 -0.22145198
-0.17657422 -0.39970964 0.2760796 -0.029578913 0.26988116 -0.06266706 0.0815881 0.054250244
0.2517076 -0.36834845 0.62429607 0.094610974 0.16393356 0.61881804 -0.07388887 -0.41774338
-0.26159307 -0.15337898 0.30719692 0.3939724 0.3971309 0.04158594 -0.23025376 -0.34825012
-0.3977311 -0.0091656875 -0.041725382 0.23825447 -0.25216508 -0.105909 0.30834082 0.19341268
-0.33617938 -0.26559892 -0.08197325 0.044954095 -0.3072891 0.18957785 0.006467045 -0.23091176
0.25423738 -0.13168277 0.17590791 -0.0065336213 0.081115216 0.26349255 -0.30934754 0.37454426

net.layers.0.bias f4 [32]
00000000: 539e e5be 3190 283d 357a c03c b134 423c
00000010: 30eb 03be ee3e 8fbc bd20 f2bc 29de 653c
00000020: 0d28 d4bc 4b5a b6bb 4ab8 e43d c575 a2bc
00000030: 149f a33d 9c7d 6abd b56b 80be 96fe ebbc
00000040: 6301 0ebd 918b e8bc 06c5 b93c 3004 7cbd
00000050: ba0d bdbd 168f 00bd 6854 17be 2a65 3bbd
00000060: 4d57 713c cb59 093d e403 20bd 7cda f13b
00000070: 6912 ecbe 41c9 46bd 0816 d3bd 6538 75bd
-0.44847354 0.041153137 0.023495773 0.011853383 -0.12882686 -0.017486062 -0.029556626 0.014030018
-0.025898004 -0.005564963 0.11167963 -0.019831548 0.07989326 -0.057248697 -0.25082174 -0.02880792
-0.03466929 -0.028386863 0.022676956 -0.06152743 -0.09231134 -0.031386457 -0.14778292 -0.045750774
0.014730287 0.0335329 -0.03906621 0.0073807817 -0.46107796 -0.048531774 -0.103069365 -0.059868235

net.layers.2.weight f4 [64, 32, 5, 5]
00000000: bfe4 4d3f 9531 913f 557d 963f bebd 343f
00000010: 4591 04be ef91 4a3f 660b 893f 355c 403f
00000020: 2f80 4f3e f485 e03e 6453 823f 187e 3e3f
00000030: 04c8 573f 11b1 683e a2b4 e93e 5030 813d
00000040: 7a57 ea3e 5d9d 143f 5acc c83e 054f 513f
00000050: c06e b2bd d23c c03e e86a b13e bbce fc3e
00000060: 381d 393e 3c6a 7d3f e51c 163f b961 05be
00000070: 1d15 01bf bfe5 a3bf 1ec0 5b3f 492d acbd
00000080: f063 9bbd 4836 9bbf 055c 33bf 8d7c 9b3d
00000090: b9e4 0ebe 32a5 e8be 6c3e 7fbf 417d 18bf
000000a0: 4d33 d9be 1935 58be 38cc a9be 6d7b acbe
000000b0: 30da 393e c996 77bd bef8 33bd 2814 a53e
000000c0: 6cb0 5e3e ade8 6abe 77f2 c7be 26fb c5be
000000d0: a86f 57be 5fe1 463e f450 8fbe e0b7 05be
000000e0: caf4 b1bd 06a2 09bd 6f54 ce3c 1799 afbe
000000f0: 6fe2 75be d176 173d 0c9f 143c 76b4 31be
00000100: 018f e9be bbf3 883d 58d0 34be 648a f2bc
00000110: 75dd f6bd 04a2 5ebe 1d61 f3be 332b b4be
00000120: 79cc a8be 255c d9be d06d 32bf 52b8 693e
00000130: c27f f03e 477d 49bf 97ba 64be 8836 cd3f
00000140: dff9 f63e 36b2 2a3e 188a b8bf 3a77 c33e
00000150: 436c 503f f1c0 033e cfd6 ac3d b956 6fbf
00000160: 5edd 953e 2729 233e a065 edbd edc9 eabd
00000170: 397c 83be 0e4c 9d3e 9e5f 51be 3208 75bf
00000180: 3f92 4bbf cbef a7be c3c4 e2be 28e6 803e
00000190: d71d ba3e 53bc 04bf 477c 42bf 63d9 68be
000001a0: 9ffa c2bd f54c 45bd c7c0 3f3f 315e 9b3e
000001b0: 087f 54be 96dd 0a3f a899 ae3e 31f2 393f
000001c0: 0ab1 1b3d 0ee3 bfbd 1c4f fe3d c3f7 163f
000001d0: 2372 6b3e 392a 5c3d c695 ba3e 3f63 2b3f
000001e0: 9994 81be b954 093f d573 1a3f 6c26 863f
000001f0: 146b 613f 2634 c63e 15e0 eabd 5177 33bf
00000200: 0b24 683e 89f0 c93e 2048 e83e fa17 163f
00000210: 017c 15bf 363d e83e cc8f 52be a492 0d3d
00000220: 58d7 2c3e 2012 1b3e 33f8 173e a557 f4be
00000230: 8324 b63d a19b c73d aff3 3a3e 1829 873d
00000240: fae2 c5be a5f1 7abf b821 38be e04f 04be
00000250: 909f aebe 59e5 b1be 51a7 13bd ccb2 12bf
00000260: 2c4b c9be 69ea 92be 30cf 2f3f afaf 8b3d
00000270: 205b 223e 76ec e83e 526f 28be 6708 083f
00000280: 2e77 d53c c9da 123f 99f0 123c f84a a33e
00000290: 7a28 b73e 2304 1fbd 7317 a0be 91da 16bf
000002a0: 5487 833e 6de5 723e 8da9 afbd bbe8 45be
000002b0: 5729 803f feb9 a53f b334 bb3e 1400 30be
000002c0: 9a8f a6bd 44ef 253d 9eff 183e c113 79bf
000002d0: 9b20 2f3e 85e2 86bd 5bb5 6d3e 1b7f 153d
000002e0: 28aa 05bf 1553 2cbe c39e 0a3e 1033 363e
000002f0: a631 a8bd 12c0 1dbf d199 9dbd 0641 4cbe
00000300: 2d19 b8be be22 e5be 52f3 323e f56f b93d
00000310: 95c7 e9bd bbdd 98be 7dfd 2abd d846 8ebe
00000320: 807f 983f e8c7 c93e cd0c a6bf 9c61 d9be
00000330: b76e 223f 53a0 463f 4334 64bd 8291 92bf
00000340: 30e9 9ebd aefc 433e 8bd3 a8be 6c8f 90bd
00000350: 3270 9bbe b579 99bd d7aa 3d3d 29c1 fabd
00000360: 9b29 54be 9d4a 9fbc 8f8c d2bc dab8 b33e
00000370: b2c7 193e 443b f3bc 7623 f3bd d650 b93e
00000380: ff77 303f abea e8bd 3995 b5bd 2eca 35be
00000390: 11ee f9bd 79e8 5f3f 70b0 db3e 7913 9a3e
000003a0: 079f b73f 896c 8cbf 45b1 8d3f af14 51be
000003b0: 62a9 ef3e c0f7 8a3e eab2 f43e 3289 213f
000003c0: 580b 56bf 840a 10bf 0804 8ebe 9a3c b93e
000003d0: a6f7 703e 53e5 46bf 5042 8fbe 3747 f6be
000003e0: 9d1b 693f 0f6e 513e 2201 de3c d166 22be
000003f0: c0cd 06bf 72fc 16bf 42e6 01be a52b c23c
0.80427164 1.1343256 1.1756998 0.70602024 -0.12946041 0.79128927 1.0706604 0.75140697
0.20263742 0.43852198 1.0181699 0.74411154 0.84289575 0.22723795 0.45645624 0.06308043
0.45769864 0.5805262 0.39218408 0.817612 -0.0871253 0.37546402 0.34651875 0.49376473
0.18077552 0.98990226 0.5863784 -0.1302556 -0.5042284 -1.2804488 0.8584002 -0.08407075
-0.07587421 -1.212594 -0.70062286 0.075921156 -0.13954438 -0.45438534 -0.99704623 -0.5956612
-0.42421952 -0.21114005 -0.3316362 -0.33687916 0.18149638 -0.060446534 -0.04393839 0.3224194
0.21746987 -0.22940321 -0.39052173 -0.38668174 -0.21038687 0.1942191 -0.2799145 -0.13058424
-0.08689268 -0.033601783 0.025186745 -0.34296486 -0.24012159 0.036978547 0.009071123 -0.17353997
-0.45616916 0.06687113 -0.17657602 -0.029607005 -0.12053958 -0.21741492 -0.4753503 -0.35189208
-0.329685 -0.42453113 -0.6969881 0.22824219 0.4697247 -0.78706783 -0.22336803 1.6032267
0.48237512 0.16669545 -1.4417143 0.381769 0.81415194 0.1286657 0.08439409 -0.93491703
0.29270452 0.15933667 -0.11591649 -0.114642955 -0.25680712 0.30722088 -0.20446631 -0.9571563
-0.7952003 -0.32800135 -0.44290742 0.25175595 0.3635089 -0.5184986 -0.7597088 -0.22739176
-0.095204584 -0.048169095 0.7490353 0.303453 -0.20751584 0.54244363 0.34101605 0.7263518
0.038010634 -0.09369479 0.12417433 0.58971804 0.22992758 0.053751204 0.36442393 0.6694831
-0.25308684 0.536449 0.60332996 1.0480475 0.88054013 0.3871166 -0.114685215 -0.7010394
0.2267 0.39441326 0.45367527 0.58630335 -0.5839234 0.453592 -0.20562667 0.034563676
0.16879022 0.15143633 0.14840774 -0.47723117 0.08893683 0.09746481 0.1825702 0.06599635
-0.38649732 -0.9802497 -0.17981613 -0.12921095 -0.34106112 -0.3474529 -0.036048237 -0.5730407
-0.39315164 -0.28694466 0.6867552 0.06820618 0.15855074 0.45492905 -0.16448715 0.5313782
0.026057806 0.5736509 0.008968496 0.31893134 0.3577307 -0.038822304 -0.3126789 -0.58927256
0.25689185 0.23720331 -0.08577261 -0.19327061 1.0012616 1.2947385 0.36563644 -0.1718753
-0.081328586 0.040511385 0.1494126 -0.9729577 0.17102282 -0.06586174 0.23213713 0.03649817
-0.5221276 -0.16828568 0.13537125 0.17792916 -0.08212595 -0.616212 -0.07695354 -0.1994668
-0.35956708 -0.4475307 0.17475632 0.09054557 -0.114150204 -0.29856667 -0.04174565 -0.27788424
1.191391 0.3941033 -1.2972656 -0.42457283 0.6345019 0.77588385 -0.055713903 -1.1450655
-0.07759321 0.19139358 -0.32973894 -0.070586056 -0.30359036 -0.07493917 0.046305504 -0.122438736
-0.20718996 -0.019444758 -0.02570179 0.35101968 0.15017584 -0.029691346 -0.11871998 0.36194485
0.689331 -0.11372884 -0.088663526 -0.17752907 -0.12203611 0.874641 0.4290805 0.3009298
1.4345406 -1.0970622 1.1069723 -0.20418046 0.46808916 0.27142143 0.4779275 0.6309997
-0.8361106 -0.56266046 -0.2773745 0.36179048 0.2353197 -0.7769367 -0.2798028 -0.48101208
0.9105776 0.2045214 0.02710015 -0.15859534 -0.526577 -0.5897895 -0.12685493 0.023702452

net.layers.2.bias f4 [64]
00000000: 965a ecbe dff7 c4be df8b fbbe 9066 36be
00000010: a958 00be 213a 1dbe 8e0c 31be e136 4bbf
00000020: 0bb2 87be 5dfa e0be ab93 34be 7872 6dbe
00000030: a861 2bbf 0802 06bf 3d63 77be 78b7 c7be
00000040: 4939 eabe d3f3 c2bd 2eda cbbe 82e2 a8be
00000050: 4ed6 56be d0b0 8fbe 721d 48bf 45be a6be
00000060: 1b5f 35be e213 90be 2bd3 88be 491c 10bf
00000070: 9aa9 f8be a622 5abf 67b3 36bf 3478 a2be
00000080: 0c97 08bf 6b93 3dbf 1a76 4bbf 764c e5bd
00000090: ba2a 2dbe d1a7 d2be 627b 15bf a81f 56bd
000000a0: fc9d 00bf da62 87be 857d a2be 540b 48bf
000000b0: 7177 edbe bbc6 dfbe 44e0 3fbe 2a1a 2abf
000000c0: 2b31 42be adc0 47bf 4dea c8be 4738 7dbe
000000d0: 3768 54be c111 c4be 3459 bdbe db7d 80bf
000000e0: 33ba b3be 9a09 bdbe 128f 07bf 72f0 8ebe
000000f0: db13 c7be 533e 9ebe 4beb 75be 6f6e 0fbf
-0.46162862 -0.3847036 -0.4913015 -0.17812562 -0.12533821 -0.15354206 -0.17289945 -0.79380614
-0.26503024 -0.43941012 -0.17634456 -0.23188198 -0.66945887 -0.5234685 -0.2415895 -0.39007163
-0.4574683 -0.09519162 -0.39814895 -0.32985312 -0.20980188 -0.28064585 -0.7816993 -0.3256704
-0.17712061 -0.2814017 -0.26723608 -0.5629316 -0.48566896 -0.8520912 -0.71367496 -0.31732333
-0.5335548 -0.74053067 -0.79477084 -0.111962244 -0.1691083 -0.4114366 -0.5839139 -0.052276284
-0.50241065 -0.26442605 -0.3173639 -0.78142285 -0.4638019 -0.43706307 -0.18737894 -0.66446173
-0.18964069 -0.78028375 -0.39241257 -0.247285 -0.2074288 -0.38294795 -0.3698212 -1.0038408
-0.35102996 -0.36921388 -0.5295268 -0.2791782 -0.38882336 -0.30906925 -0.24015538 -0.56027883

net.layers.7.weight f4 [32, 64]
00000000: 39d0 773e f51b f5bd dd5a 67bd b43f 99be
00000010: 5c3d 9ebc 9f46 6bbe d178 303d 0b5c a1be
00000020: 73ee 443d ce43 ae3e 46bd 97be e0c8 46be
00000030: afbb 88be f2e5 70bd 32d7 bfbe 15e2 823e
00000040: c9c2 583e 27a5 ed3e 0f6b fd3e a320 80bd
00000050: 0c5a a4be c29e d53d 7390 3d3e ad4a 5cbf
00000060: 19e2 9abd 1bb7 193e cad2 583e 34a8 fb3d
00000070: 69e9 123d b12d 443e 1ac4 91bd ba17 003f
00000080: cf53 66bd 5cfb 873e 6b7d 4bbe f25c 97be
00000090: 5052 fa3d 94da 9dbe e790 b1bc 811f 503d
000000a0: 08fb 673d 4f28 8e3e cd12 c4be cba4 8cbe
000000b0: 5383 9f3e 430c 143f 63c3 ae3c 65fe b53d
000000c0: 1581 c73e af1a ea3e c6d4 243f 4068 e2bd
000000d0: 00dc 3fbd d578 b73e 64a2 9cbe 8f03 d2be
000000e0: fe37 13bf b1a2 52be 8de8 dd3e 5273 98bd
000000f0: f5fb 98be ca62 5bbe 7468 c3be 47c7 4d3e
00000100: 1a65 96bd 568f 73be f2a4 833d b351 7fbe
00000110: 8195 023e 12da 0bbe acc2 bebd 5fc7 ecbe
00000120: 39ab 3ebe 59d5 983e 0737 543e c92a d9be
00000130: 95a1 8bbf 3106 78bd d11c b73e ca6b 503d
00000140: 502e 82be 34a7 00be ab73 b23c 6750 fe3d
00000150: 7f11 bbbe e61d 413f d072 173c e8e9 0fbf
00000160: a4cb f3bd 0421 e8bd 9fbe 62bc 7b4a 1fbd
00000170: ea9d a6be 288c 80be 5c14 9fbf 06a7 423f
00000180: 782a b13e 6399 683f e36e 12bf 9f8b e23c
00000190: 337f 903d c0f5 02bf 224a 3b3e c74a 5f3e
000001a0: a630 19bf 533e 183e 510b 19bd 0559 7fbd
000001b0: 763e b4be 8b5a ce3d 81bc 423d 16ed 933d
000001c0: d7de 033f b569 babe 1ee7 dd3d 8cc0 b2be
000001d0: 14ed 1cbe 7780 9f3e 259c b4be 1852 4bbf
000001e0: 6ecd 3dbe 5103 3ebe baee c83d 8186 10bd
000001f0: 6fc0 e13e dba7 37be b232 11be 6796 f13d
00000200: 44bb 623e 4ab1 1cbe 889e 0a3e 0648 9bbe
00000210: eb60 f1bd 97d7 ca3e 2776 07bf 9b28 8ebe
00000220: 5f33 c43e 2188 943e 49ed f4be 1c25 06bf
00000230: 1d08 17bf ade4 073d 4f4b f53d 63ce cf3e
00000240: 1aaf afbe 48e7 cc3d 8170 473e e7cb 163c
00000250: 9702 91bf b5d8 1c3e 7b1d a93d 934e 57bd
00000260: 9fc2 81bd ed42 0e3f f3ff 7d3f b752 45be
00000270: a8ce 96be e669 7f3e c298 17bf af97 323f
00000280: 804a 4bbe 4c45 f33e ff0e 303e 1787 093f
00000290: e774 5e3f d40d ddbe f90f db3d eccd 923e
000002a0: 9c1d 30be 9625 f13e 363a 5fbe b4a9 9bbc
000002b0: 187f 9b3c 8721 7a3e c3e4 a6be cc76 7039
000002c0: b3f5 0b3e 0f8f 9a3d 0360 d1bd 632e 8dbe
000002d0: 25a9 b6bb 734e 8f3d 702e 7b3d 1a28 49bc
000002e0: 9bb9 ebbe f028 bfbe fd21 d83e 5a16 563e
000002f0: dbc8 383e f892 a83c 0f83 ffbe 8eab d63c
00000300: 3184 74bf e313 ca3e 8bc6 4ebe 228e 4bbf
00000310: 1eb0 b7bd c56f fe3e 26c4 4ebc d899 3fbf
00000320: 8a74 173d 5875 16be 7139 d2bf 9b05 3cbf
00000330: 55e1 dcbf f149 dcbe 0a20 843f 1ef0 7a3e
00000340: e243 b7be e274 90be 3fea 01bf 7f39 063e
00000350: e383 17bf 3505 b93e 4bfa e7bd 2db5 c0bf
00000360: 4c3f adbf 4373 903e 9389 583f 6ccf fabd
00000370: 6299 17bf 4503 bdbe 3f7d 9fbf bba2 293e
00000380: 9098 84be 7c85 d33e 02cc 07bf 7b8d 23be
00000390: dd12 c93d 3dfb 56bf 8236 343e 589d 19be
000003a0: 0b85 65bf ab7c 203f 7f58 5b3e cb47 bd3e
000003b0: 22fc b83e def1 0e3d 4e1d 85bf d755 67bf
000003c0: 4135 523f 2f82 0cbf 265c 9ebc 0bd4 4bbf
000003d0: 44ce 2b3f 49eb 24bf c7ff 9b3e 5101 92bf
000003e0: e42c 15bf b5da 1dbf 7a95 533f 3ed0 063e
000003f0: 9d81 b83e 2949 01bf add3 c03c 1c42 94be
0.24200524 -0.11968223 -0.05648314 -0.29931414 -0.019316368 -0.22976159 0.04308397 -0.31515536
0.048078965 0.34036106 -0.29636592 -0.19412565 -0.2670569 -0.058813043 -0.37468868 0.25563112
0.21168055 0.46415064 0.49495742 -0.06256225 -0.3209995 0.10430671 0.18512134 -0.86051446
-0.07562656 0.15011255 0.2117416 0.122879416 0.03586713 0.19158055 -0.071174815 0.50036204
-0.05623227 0.2655896 -0.19872062 -0.295631 0.12222731 -0.30830824 -0.02167554 0.050811294
0.056635886 0.27765128 -0.38295594 -0.27469477 0.3115488 0.5783121 0.021333402 0.088864125
0.3896567 0.45723483 0.64387167 -0.1105504 -0.046840668 0.35834375 -0.30592644 -0.4101834
-0.5750731 -0.20569874 0.43341485 -0.074438706 -0.29879728 -0.21424404 -0.3816563 0.2009555
-0.07343502 -0.23785147 0.06427945 -0.2493351 0.12752344 -0.13657406 -0.093144745 -0.46245858
-0.18620004 0.2985027 0.20724116 -0.42415455 -1.0908686 -0.06055278 0.35764173 0.050884046
-0.2542596 -0.12563783 0.02178367 0.12417679 -0.36536786 0.75436246 0.009243682 -0.5621629
-0.11904076 -0.11334422 -0.013839393 -0.03888939 -0.32542354 -0.2510693 -1.2428088 0.7603611
0.34602714 0.9085905 -0.5720045 0.027654467 0.07055511 -0.51156235 0.18289998 0.21805869
-0.59839857 0.14867525 -0.037364308 -0.062340755 -0.35203904 0.100758635 0.047543053 0.07222955
0.515119 -0.36408773 0.10835098 -0.34912527 -0.15324813 0.31152698 -0.3527538 -0.7942214
-0.18535396 -0.18555953 0.098111585 -0.035284523 0.44092128 -0.17935126 -0.14179495 0.11796265
0.22141749 -0.15302005 0.13537037 -0.30328387 -0.11786064 0.39617607 -0.5291466 -0.27765355
0.38320443 0.29010108 -0.47837284 -0.52400374 -0.58996755 0.033177067 0.119772546 0.40587148
-0.3431328 0.10005051 0.1947651 0.009203888 -1.1328915 0.15317042 0.08257576 -0.05256517
-0.06335949 0.5557087 0.9921867 -0.19269834 -0.2945454 0.24942741 -0.59217465 0.697627
-0.19852638 0.47513807 0.1719322 0.53721756 0.8689713 -0.43174613 0.10696406 0.2867273
-0.17198795 0.47098988 -0.2179955 -0.01900182 0.018981501 0.24426852 -0.32596406 0.00022932439
0.13667946 0.075468175 -0.10223391 -0.27574453 -0.005574363 0.06997385 0.061323583 -0.012277627
-0.46040043 -0.3733592 0.4221343 0.20906964 0.1804537 0.020577893 -0.49904677 0.02620485
-0.9551421 0.39468297 -0.20192926 -0.7951375 -0.089691386 0.49694648 -0.012620008 -0.7484412
0.036976375 -0.146932 -1.642378 -0.73446053 -1.7256266 -0.43025163 1.0322278 0.2450566
-0.35793978 -0.28214175 -0.50748056 0.1310787 -0.5918562 0.36136785 -0.113270365 -1.505529
-1.3534942 0.28212938 0.8458492 -0.12246594 -0.5921842 -0.36916557 -1.2460097 0.16565983
-0.25897646 0.41312778 -0.53045666 -0.1597194 0.09818051 -0.8397711 0.17598918 -0.15001428
-0.8965613 0.6269023 0.21420477 0.36968836 0.36129862 0.03489863 -1.0399568 -0.90365356
0.8211251 -0.54886144 -0.01933105 -0.79620427 0.6711161 -0.64421517 0.3046858 -1.1406652
-0.5827162 -0.61661845 0.8264996 0.13165376 0.36036387 -0.5050226 0.023538435 -0.28956687

net.layers.7.bias f4 [32]
00000000: a5a3 79be 7d78 44bf 4d77 c6be 70bd c0bf
00000010: e45e 67be 16f8 97bf 9e42 6ebf 2717 fcbe
00000020: 5d32 5a3e 4e40 4e3c 1d96 a6bf 9f7e 92bf
00000030: cd71 17bf d6f0 65bd 6f4e 4ebf 5d0c 00bf
00000040: c967 123a 3a6c e83d c85b 9abf c19d d3be
00000050: dcbd 7fbd 6eae 8abf adc8 39bf 30eb a4bf
00000060: 159d 85be 4fc8 dbbe eece aebd a70a 20c0
00000070: 32ea 89bf 898b bcbe 9983 6cbe 9fd0 81bf
-0.24378832 -0.7674635 -0.38762894 -1.5057812 -0.22594792 -1.1872585 -0.930704 -0.49236414
0.21308275 0.012588574 -1.3014561 -1.1444892 -0.5915802 -0.056137882 -0.8058843 -0.50018865
0.0005584923 0.113487676 -1.205926 -0.41331294 -0.062436923 -1.0834482 -0.7257183 -1.2884274
-0.26096407 -0.4292626 -0.085355625 -2.5006502 -1.0774596 -0.36825207 -0.23097076 -1.0141791

net.layers.9.weight f4 [10, 32]
00000000: d85c ed3d f885 2a3e 357e 05be f0ff 33be
00000010: 8014 013e e199 113e 802a 0a3f 77ab febd
00000020: dd2d 13be 4597 14bd 254d 9dbc 156d 2abe
00000030: 9baa e2bc 897e 013e ca8c 27be 34bd c73e
00000040: ec52 063d aa4b 16be 4e91 e13d 3f89 023e
00000050: b2ec b7bd 02ff 1dbd a9cb 88bd d98d dcbe
00000060: abb9 06bd 4f0d fb3c 4bf2 9439 70f2 8dbe
00000070: bd0a bb3d f3a7 11bd 6a22 13be d25d b6bd
00000080: 339a 6a3d 89a8 2b3e 0747 183c 1c45 b6bd
00000090: 5389 8f3d b242 f4bc cc91 e6bb e04a f13d
000000a0: 5ceb b13d 27e3 c03d c57f 8f3c ce5e 8d3d
000000b0: d354 8dbe 8e17 abbc 63ba 953e 4290 32bd
000000c0: 1406 c0bd f618 213e 6156 dc3c 1af6 093e
000000d0: 2643 c63c 800b 963d 6aac 6b3e 95ec 3ebe
000000e0: 9159 61bc 46c3 e13c 56eb 023c 049d 00bf
000000f0: 4305 c93e d9f8 8dbb dd29 0e3d e213 47be
00000100: ec18 72bd 2c42 3bbe 2fb0 dabd 79c7 67be
00000110: 788b 993d edc9 973e 46cc dc3b c4c3 c4bd
00000120: ce5e c33d 651a 9a3e 69af d8bd c423 0b3e
00000130: b152 ddbd 24fc a0bd ff69 163e 52cb a7bd
00000140: 1352 9cbd 7d31 aebc ee71 c7be 96e2 c33c
00000150: f851 203e a917 48bd 2530 e03d b21d d53d
00000160: 22bf 99bd e5d5 b83b a9f7 80bc 7ab0 cebe
00000170: e08a 9e3d 882b 783d 1c8e 483d c012 b93d
00000180: bdf7 c93e 8f5e c4bd f030 09be 647d 763d
00000190: 5078 e63d cf8c a53d 6b94 8f3d 6e6d 20ba
000001a0: 6c70 3f3d 8dfa a5bd 37d0 5abe f890 a9bc
000001b0: 5d30 743d 372d fcbd de7b 5c3e 1669 833d
000001c0: e5b4 cb3d 0bb2 febd 7d8e cb3d 1b8a 2bbe
000001d0: d040 aa3e 92b7 dbbc 30c6 7c3e 3733 acbe
000001e0: f256 733e 747d d93c 2b1a e2bd 393b 9dbe
000001f0: b62d 5fbe 0d92 933e 6a9e 3b3d 9984 e93d
00000200: f6af f83c 759f 47bf 5387 57be a842 073d
00000210: 02f6 443e d82f 6e3d b121 cabc bf5d a33d
00000220: 77ca d9bd 3918 ea3d bd9f 63be 4132 c4bd
00000230: 8a57 0c3f 0a93 443d c717 e2bd cca9 17bb
00000240: d7af 893d 77cb a93e 9bc0 ab3e bf9c 063e
00000250: 57ce 30be 7ac5 7e3e 1c78 8cbc 22da c5bc
00000260: 2895 03bd f0ad b0bd 6bd0 13be 92c6 233e
00000270: 70ae 61bd a800 573e 1242 af3d 7786 b4bd
00000280: d8f4 583b d7ea 943e 0f6c febd 7006 0f3e
00000290: a5e6 9f3c d65e 61be b081 b33e aacc 753e
000002a0: 860f 893d c3ca 52bc 6a2b 913c fca7 13be
000002b0: 1f00 d3bd 02c0 aa3e a594 24be e744 2cbe
000002c0: fa44 553d 510b 18be 5363 5abe 3a31 aebd
000002d0: a49a 083e facf 853e cabb 013f 1077 a63e
000002e0: 5223 dcbd 4fef 5ebd 9ca6 533e d03f 79be
000002f0: 2f95 71bd 57a4 7f3e 5e26 663d 0e26 7fbd
00000300: b73d 4d3e 4e31 8e3e f74d 903e 1f3b e4be
00000310: 7ea0 4c3e ffb2 a5bd bbfb 52bd 0e3b 703e
00000320: d012 28be bae3 e63d 2df1 e8be 6018 193d
00000330: 5013 dcbd c5e4 a93e 1105 453e ef99 9e3d
00000340: fb2b 85be 7527 a33d 6c44 893e 0907 a13e
00000350: 5ff3 9fbe b201 aa3e 347d 07be ec32 9f3e
00000360: 9070 853d 6746 293d e005 cebd a57c 873e
00000370: d978 69be 7214 80bd 6ee6 3ebd 6488 433e
00000380: e7c9 b9bc 461b 10be eaf8 533c bc33 33bf
00000390: 6d58 0e3e 4d0b a4be 047a 49bc 9578 fdbd
000003a0: 7752 a53e d71b 5b3d 954d 4cbf c89c 2fbd
000003b0: aeff 0fbd e2b1 64bd cdb9 adbd 35b1 90be
000003c0: 36c5 0c3e ca9f 833d df4b 923c bdd0 d2bd
000003d0: 0de6 d53d 65ee 1ebf 7ab5 703e ba0e c63d
000003e0: f9b0 97be 8e99 71bd af25 9b3d 04d5 83be
000003f0: 12a9 d63c d188 9a3d 676b 253d 7eaa d6bd
0.11589974 0.16652668 -0.13036425 -0.17578101 0.12605476 0.14218856 0.539711 -0.12435048
-0.14372964 -0.036277074 -0.019201824 -0.16643174 -0.027669242 0.12645926 -0.163623 0.39011538
0.032793924 -0.14677301 0.11014043 0.12747668 -0.08980693 -0.038573273 -0.0667947 -0.4307697
-0.03289191 0.030645994 0.00028409282 -0.27724028 0.091329075 -0.03556056 -0.14368597 -0.089046136
0.057275962 0.1676351 0.009294278 -0.088999 0.070086144 -0.029816959 -0.0070364233 0.117818594
0.08687469 0.09418326 0.01751698 0.06902848 -0.27603778 -0.020885255 0.29243764 -0.043594606
-0.09376159 0.15732178 0.026896657 0.13472787 0.02420194 0.07326412 0.2301499 -0.18644936
-0.013754264 0.027558934 0.007990679 -0.50239587 0.39261827 -0.0043326435 0.034707893 -0.19441178
-0.0591058 -0.18286961 -0.106781356 -0.22634687 0.07497305 0.29646245 0.0067382185 -0.09607652
0.09539567 0.30098262 -0.10580332 0.13587862 -0.10806788 -0.07860592 0.14688872 -0.08193077
-0.07632842 -0.021263832 -0.3895411 0.023911756 0.15656269 -0.04885069 0.10946683 0.104060546
-0.07507159 0.0056407326 -0.015743094 -0.40369016 0.07741332 0.06058839 0.04896365 0.090367794
0.39446822 -0.09588348 -0.13397574 0.060178176 0.112534165 0.08083498 0.0701073 -0.0006119822
0.046738073 -0.081044294 -0.2136849 -0.02069901 0.059616435 -0.123133115 0.21531627 0.06416528
0.09946612 -0.12436303 0.09939287 -0.16751902 0.33252573 -0.026820932 0.24684978 -0.33632824
0.23763636 0.026549079 -0.110401474 -0.30709246 -0.21794781 0.28822365 0.045805372 0.11402244
0.030357342 -0.7797769 -0.21047716 0.033022553 0.1923447 0.058151096 -0.024674268 0.07976865
-0.1063432 0.11430401 -0.22228904 -0.09579898 0.54821074 0.04799179 -0.110396914 -0.0023141978
0.06722992 0.33163044 0.33545384 0.13145731 -0.17266212 0.24880019 -0.017147116 -0.024151865
-0.03212467 -0.08626926 -0.14434974 0.15993717 -0.055097997 0.20996344 0.08557524 -0.0881471
0.0033104923 0.2908542 -0.12422954 0.139673 0.01951916 -0.22008833 0.3505988 0.24003854
0.06692414 -0.012865725 0.017720897 -0.1441955 -0.103027575 0.33349615 -0.16072328 -0.16823159
0.052067734 -0.14848067 -0.21326952 -0.08505483 0.1334024 0.26135236 0.5067717 0.32512712
-0.10748924 -0.05442744 0.20669025 -0.24340749 -0.058980163 0.24965034 0.056188934 -0.06229215
0.20043074 0.27771991 0.28184482 -0.44576356 0.19983098 -0.080907814 -0.0515096 0.23460028
-0.16413426 0.11273904 -0.45496503 0.03737676 -0.10745871 0.3318235 0.19240214 0.07744204
-0.26010117 0.0796651 0.26810014 0.3145068 -0.31240365 0.33204418 -0.13231355 0.31093538
0.0651561 0.041326907 -0.10059714 0.26462284 -0.22800006 -0.062539 -0.046606474 0.19094998
-0.022679282 -0.14072904 0.012937764 -0.70000815 0.1390092 -0.32039872 -0.012297157 -0.12376515
0.32289478 0.053493347 -0.7980588 -0.042874128 -0.035155945 -0.055833705 -0.08482704 -0.28260198
0.13747105 0.06426962 0.017858444 -0.1029372 0.10444269 -0.6208251 0.23506728 0.096707776
-0.29627207 -0.05898433 0.07575547 -0.25748456 0.026203666 0.07545627 0.04038563 -0.104817376

net.layers.9.bias f4 [10]
00000000: e729 b33e 237f e03e ce9e 193e a4d3 41be
00000010: 1df8 a2bb 260f 9abc 66b2 0cbe f805 43be
00000020: 3dc0 da3e 651e b5be
0.34992906 0.43846998 0.15001985 -0.1892839 -0.004973425 -0.018806051 -0.13739929 -0.19045246
0.4272479 -0.35374752
